program(1.0)
[buildInfo = dict<tensor<string, []>, tensor<string, []>>({{"coremlc-component-MIL", "3520.4.1"}, {"coremlc-version", "3520.5.1"}, {"coremltools-component-torch", "2.12.1"}, {"coremltools-source-dialect", "TorchScript"}, {"coremltools-version", "9.0"}})]
{
    func main<ios15>(tensor<fp32, [1, 3, 640, 640]> image) {
            tensor<fp32, []> image__scaled___y_0 = const()[name = tensor<string, []>("image__scaled___y_0"), val = tensor<fp32, []>(0x1.010102p-8)];
            tensor<fp32, [1, 3, 640, 640]> image__scaled__ = mul(x = image, y = image__scaled___y_0)[name = tensor<string, []>("image__scaled__")];
            tensor<fp32, [16]> model_0_conv_bias = const()[name = tensor<string, []>("model_0_conv_bias"), val = tensor<fp32, [16]>(BLOBFILE(path = tensor<string, []>("@model_path/weights/weight.bin"), offset = tensor<uint64, []>(64)))];
            tensor<fp32, [16, 3, 3, 3]> model_0_conv_weight = const()[name = tensor<string, []>("model_0_conv_weight"), val = tensor<fp32, [16, 3, 3, 3]>(BLOBFILE(path = tensor<string, []>("@model_path/weights/weight.bin"), offset = tensor<uint64, []>(192)))];
            tensor<fp32, [32]> model_1_conv_bias = const()[name = tensor<string, []>("model_1_conv_bias"), val = tensor<fp32, [32]>(BLOBFILE(path = tensor<string, []>("@model_path/weights/weight.bin"), offset = tensor<uint64, []>(1984)))];
            tensor<fp32, [32, 16, 3, 3]> model_1_conv_weight = const()[name = tensor<string, []>("model_1_conv_weight"), val = tensor<fp32, [32, 16, 3, 3]>(BLOBFILE(path = tensor<string, []>("@model_path/weights/weight.bin"), offset = tensor<uint64, []>(2176)))];
            tensor<fp32, [32]> model_2_cv1_conv_bias = const()[name = tensor<string, []>("model_2_cv1_conv_bias"), val = tensor<fp32, [32]>(BLOBFILE(path = tensor<string, []>("@model_path/weights/weight.bin"), offset = tensor<uint64, []>(20672)))];
            tensor<fp32, [32, 32, 1, 1]> model_2_cv1_conv_weight = const()[name = tensor<string, []>("model_2_cv1_conv_weight"), val = tensor<fp32, [32, 32, 1, 1]>(BLOBFILE(path = tensor<string, []>("@model_path/weights/weight.bin"), offset = tensor<uint64, []>(20864)))];
            tensor<fp32, [16]> model_2_m_0_cv1_conv_bias = const()[name = tensor<string, []>("model_2_m_0_cv1_conv_bias"), val = tensor<fp32, [16]>(BLOBFILE(path = tensor<string, []>("@model_path/weights/weight.bin"), offset = tensor<uint64, []>(25024)))];
            tensor<fp32, [16, 16, 3, 3]> model_2_m_0_cv1_conv_weight = const()[name = tensor<string, []>("model_2_m_0_cv1_conv_weight"), val = tensor<fp32, [16, 16, 3, 3]>(BLOBFILE(path = tensor<string, []>("@model_path/weights/weight.bin"), offset = tensor<uint64, []>(25152)))];
            tensor<fp32, [16]> model_2_m_0_cv2_conv_bias = const()[name = tensor<string, []>("model_2_m_0_cv2_conv_bias"), val = tensor<fp32, [16]>(BLOBFILE(path = tensor<string, []>("@model_path/weights/weight.bin"), offset = tensor<uint64, []>(34432)))];
            tensor<fp32, [16, 16, 3, 3]> model_2_m_0_cv2_conv_weight = const()[name = tensor<string, []>("model_2_m_0_cv2_conv_weight"), val = tensor<fp32, [16, 16, 3, 3]>(BLOBFILE(path = tensor<string, []>("@model_path/weights/weight.bin"), offset = tensor<uint64, []>(34560)))];
            tensor<fp32, [32]> model_2_cv2_conv_bias = const()[name = tensor<string, []>("model_2_cv2_conv_bias"), val = tensor<fp32, [32]>(BLOBFILE(path = tensor<string, []>("@model_path/weights/weight.bin"), offset = tensor<uint64, []>(43840)))];
            tensor<fp32, [32, 48, 1, 1]> model_2_cv2_conv_weight = const()[name = tensor<string, []>("model_2_cv2_conv_weight"), val = tensor<fp32, [32, 48, 1, 1]>(BLOBFILE(path = tensor<string, []>("@model_path/weights/weight.bin"), offset = tensor<uint64, []>(44032)))];
            tensor<fp32, [64]> model_3_conv_bias = const()[name = tensor<string, []>("model_3_conv_bias"), val = tensor<fp32, [64]>(BLOBFILE(path = tensor<string, []>("@model_path/weights/weight.bin"), offset = tensor<uint64, []>(50240)))];
            tensor<fp32, [64, 32, 3, 3]> model_3_conv_weight = const()[name = tensor<string, []>("model_3_conv_weight"), val = tensor<fp32, [64, 32, 3, 3]>(BLOBFILE(path = tensor<string, []>("@model_path/weights/weight.bin"), offset = tensor<uint64, []>(50560)))];
            tensor<fp32, [64]> model_4_cv1_conv_bias = const()[name = tensor<string, []>("model_4_cv1_conv_bias"), val = tensor<fp32, [64]>(BLOBFILE(path = tensor<string, []>("@model_path/weights/weight.bin"), offset = tensor<uint64, []>(124352)))];
            tensor<fp32, [64, 64, 1, 1]> model_4_cv1_conv_weight = const()[name = tensor<string, []>("model_4_cv1_conv_weight"), val = tensor<fp32, [64, 64, 1, 1]>(BLOBFILE(path = tensor<string, []>("@model_path/weights/weight.bin"), offset = tensor<uint64, []>(124672)))];
            tensor<fp32, [32]> model_4_m_0_cv1_conv_bias = const()[name = tensor<string, []>("model_4_m_0_cv1_conv_bias"), val = tensor<fp32, [32]>(BLOBFILE(path = tensor<string, []>("@model_path/weights/weight.bin"), offset = tensor<uint64, []>(141120)))];
            tensor<fp32, [32, 32, 3, 3]> model_4_m_0_cv1_conv_weight = const()[name = tensor<string, []>("model_4_m_0_cv1_conv_weight"), val = tensor<fp32, [32, 32, 3, 3]>(BLOBFILE(path = tensor<string, []>("@model_path/weights/weight.bin"), offset = tensor<uint64, []>(141312)))];
            tensor<fp32, [32]> model_4_m_0_cv2_conv_bias = const()[name = tensor<string, []>("model_4_m_0_cv2_conv_bias"), val = tensor<fp32, [32]>(BLOBFILE(path = tensor<string, []>("@model_path/weights/weight.bin"), offset = tensor<uint64, []>(178240)))];
            tensor<fp32, [32, 32, 3, 3]> model_4_m_0_cv2_conv_weight = const()[name = tensor<string, []>("model_4_m_0_cv2_conv_weight"), val = tensor<fp32, [32, 32, 3, 3]>(BLOBFILE(path = tensor<string, []>("@model_path/weights/weight.bin"), offset = tensor<uint64, []>(178432)))];
            tensor<fp32, [32]> model_4_m_1_cv1_conv_bias = const()[name = tensor<string, []>("model_4_m_1_cv1_conv_bias"), val = tensor<fp32, [32]>(BLOBFILE(path = tensor<string, []>("@model_path/weights/weight.bin"), offset = tensor<uint64, []>(215360)))];
            tensor<fp32, [32, 32, 3, 3]> model_4_m_1_cv1_conv_weight = const()[name = tensor<string, []>("model_4_m_1_cv1_conv_weight"), val = tensor<fp32, [32, 32, 3, 3]>(BLOBFILE(path = tensor<string, []>("@model_path/weights/weight.bin"), offset = tensor<uint64, []>(215552)))];
            tensor<fp32, [32]> model_4_m_1_cv2_conv_bias = const()[name = tensor<string, []>("model_4_m_1_cv2_conv_bias"), val = tensor<fp32, [32]>(BLOBFILE(path = tensor<string, []>("@model_path/weights/weight.bin"), offset = tensor<uint64, []>(252480)))];
            tensor<fp32, [32, 32, 3, 3]> model_4_m_1_cv2_conv_weight = const()[name = tensor<string, []>("model_4_m_1_cv2_conv_weight"), val = tensor<fp32, [32, 32, 3, 3]>(BLOBFILE(path = tensor<string, []>("@model_path/weights/weight.bin"), offset = tensor<uint64, []>(252672)))];
            tensor<fp32, [64]> model_4_cv2_conv_bias = const()[name = tensor<string, []>("model_4_cv2_conv_bias"), val = tensor<fp32, [64]>(BLOBFILE(path = tensor<string, []>("@model_path/weights/weight.bin"), offset = tensor<uint64, []>(289600)))];
            tensor<fp32, [64, 128, 1, 1]> model_4_cv2_conv_weight = const()[name = tensor<string, []>("model_4_cv2_conv_weight"), val = tensor<fp32, [64, 128, 1, 1]>(BLOBFILE(path = tensor<string, []>("@model_path/weights/weight.bin"), offset = tensor<uint64, []>(289920)))];
            tensor<fp32, [128]> model_5_conv_bias = const()[name = tensor<string, []>("model_5_conv_bias"), val = tensor<fp32, [128]>(BLOBFILE(path = tensor<string, []>("@model_path/weights/weight.bin"), offset = tensor<uint64, []>(322752)))];
            tensor<fp32, [128, 64, 3, 3]> model_5_conv_weight = const()[name = tensor<string, []>("model_5_conv_weight"), val = tensor<fp32, [128, 64, 3, 3]>(BLOBFILE(path = tensor<string, []>("@model_path/weights/weight.bin"), offset = tensor<uint64, []>(323328)))];
            tensor<fp32, [128]> model_6_cv1_conv_bias = const()[name = tensor<string, []>("model_6_cv1_conv_bias"), val = tensor<fp32, [128]>(BLOBFILE(path = tensor<string, []>("@model_path/weights/weight.bin"), offset = tensor<uint64, []>(618304)))];
            tensor<fp32, [128, 128, 1, 1]> model_6_cv1_conv_weight = const()[name = tensor<string, []>("model_6_cv1_conv_weight"), val = tensor<fp32, [128, 128, 1, 1]>(BLOBFILE(path = tensor<string, []>("@model_path/weights/weight.bin"), offset = tensor<uint64, []>(618880)))];
            tensor<fp32, [64]> model_6_m_0_cv1_conv_bias = const()[name = tensor<string, []>("model_6_m_0_cv1_conv_bias"), val = tensor<fp32, [64]>(BLOBFILE(path = tensor<string, []>("@model_path/weights/weight.bin"), offset = tensor<uint64, []>(684480)))];
            tensor<fp32, [64, 64, 3, 3]> model_6_m_0_cv1_conv_weight = const()[name = tensor<string, []>("model_6_m_0_cv1_conv_weight"), val = tensor<fp32, [64, 64, 3, 3]>(BLOBFILE(path = tensor<string, []>("@model_path/weights/weight.bin"), offset = tensor<uint64, []>(684800)))];
            tensor<fp32, [64]> model_6_m_0_cv2_conv_bias = const()[name = tensor<string, []>("model_6_m_0_cv2_conv_bias"), val = tensor<fp32, [64]>(BLOBFILE(path = tensor<string, []>("@model_path/weights/weight.bin"), offset = tensor<uint64, []>(832320)))];
            tensor<fp32, [64, 64, 3, 3]> model_6_m_0_cv2_conv_weight = const()[name = tensor<string, []>("model_6_m_0_cv2_conv_weight"), val = tensor<fp32, [64, 64, 3, 3]>(BLOBFILE(path = tensor<string, []>("@model_path/weights/weight.bin"), offset = tensor<uint64, []>(832640)))];
            tensor<fp32, [64]> model_6_m_1_cv1_conv_bias = const()[name = tensor<string, []>("model_6_m_1_cv1_conv_bias"), val = tensor<fp32, [64]>(BLOBFILE(path = tensor<string, []>("@model_path/weights/weight.bin"), offset = tensor<uint64, []>(980160)))];
            tensor<fp32, [64, 64, 3, 3]> model_6_m_1_cv1_conv_weight = const()[name = tensor<string, []>("model_6_m_1_cv1_conv_weight"), val = tensor<fp32, [64, 64, 3, 3]>(BLOBFILE(path = tensor<string, []>("@model_path/weights/weight.bin"), offset = tensor<uint64, []>(980480)))];
            tensor<fp32, [64]> model_6_m_1_cv2_conv_bias = const()[name = tensor<string, []>("model_6_m_1_cv2_conv_bias"), val = tensor<fp32, [64]>(BLOBFILE(path = tensor<string, []>("@model_path/weights/weight.bin"), offset = tensor<uint64, []>(1128000)))];
            tensor<fp32, [64, 64, 3, 3]> model_6_m_1_cv2_conv_weight = const()[name = tensor<string, []>("model_6_m_1_cv2_conv_weight"), val = tensor<fp32, [64, 64, 3, 3]>(BLOBFILE(path = tensor<string, []>("@model_path/weights/weight.bin"), offset = tensor<uint64, []>(1128320)))];
            tensor<fp32, [128]> model_6_cv2_conv_bias = const()[name = tensor<string, []>("model_6_cv2_conv_bias"), val = tensor<fp32, [128]>(BLOBFILE(path = tensor<string, []>("@model_path/weights/weight.bin"), offset = tensor<uint64, []>(1275840)))];
            tensor<fp32, [128, 256, 1, 1]> model_6_cv2_conv_weight = const()[name = tensor<string, []>("model_6_cv2_conv_weight"), val = tensor<fp32, [128, 256, 1, 1]>(BLOBFILE(path = tensor<string, []>("@model_path/weights/weight.bin"), offset = tensor<uint64, []>(1276416)))];
            tensor<fp32, [256]> model_7_conv_bias = const()[name = tensor<string, []>("model_7_conv_bias"), val = tensor<fp32, [256]>(BLOBFILE(path = tensor<string, []>("@model_path/weights/weight.bin"), offset = tensor<uint64, []>(1407552)))];
            tensor<fp32, [256, 128, 3, 3]> model_7_conv_weight = const()[name = tensor<string, []>("model_7_conv_weight"), val = tensor<fp32, [256, 128, 3, 3]>(BLOBFILE(path = tensor<string, []>("@model_path/weights/weight.bin"), offset = tensor<uint64, []>(1408640)))];
            tensor<fp32, [256]> model_8_cv1_conv_bias = const()[name = tensor<string, []>("model_8_cv1_conv_bias"), val = tensor<fp32, [256]>(BLOBFILE(path = tensor<string, []>("@model_path/weights/weight.bin"), offset = tensor<uint64, []>(2588352)))];
            tensor<fp32, [256, 256, 1, 1]> model_8_cv1_conv_weight = const()[name = tensor<string, []>("model_8_cv1_conv_weight"), val = tensor<fp32, [256, 256, 1, 1]>(BLOBFILE(path = tensor<string, []>("@model_path/weights/weight.bin"), offset = tensor<uint64, []>(2589440)))];
            tensor<fp32, [128]> model_8_m_0_cv1_conv_bias = const()[name = tensor<string, []>("model_8_m_0_cv1_conv_bias"), val = tensor<fp32, [128]>(BLOBFILE(path = tensor<string, []>("@model_path/weights/weight.bin"), offset = tensor<uint64, []>(2851648)))];
            tensor<fp32, [128, 128, 3, 3]> model_8_m_0_cv1_conv_weight = const()[name = tensor<string, []>("model_8_m_0_cv1_conv_weight"), val = tensor<fp32, [128, 128, 3, 3]>(BLOBFILE(path = tensor<string, []>("@model_path/weights/weight.bin"), offset = tensor<uint64, []>(2852224)))];
            tensor<fp32, [128]> model_8_m_0_cv2_conv_bias = const()[name = tensor<string, []>("model_8_m_0_cv2_conv_bias"), val = tensor<fp32, [128]>(BLOBFILE(path = tensor<string, []>("@model_path/weights/weight.bin"), offset = tensor<uint64, []>(3442112)))];
            tensor<fp32, [128, 128, 3, 3]> model_8_m_0_cv2_conv_weight = const()[name = tensor<string, []>("model_8_m_0_cv2_conv_weight"), val = tensor<fp32, [128, 128, 3, 3]>(BLOBFILE(path = tensor<string, []>("@model_path/weights/weight.bin"), offset = tensor<uint64, []>(3442688)))];
            tensor<fp32, [256]> model_8_cv2_conv_bias = const()[name = tensor<string, []>("model_8_cv2_conv_bias"), val = tensor<fp32, [256]>(BLOBFILE(path = tensor<string, []>("@model_path/weights/weight.bin"), offset = tensor<uint64, []>(4032576)))];
            tensor<fp32, [256, 384, 1, 1]> model_8_cv2_conv_weight = const()[name = tensor<string, []>("model_8_cv2_conv_weight"), val = tensor<fp32, [256, 384, 1, 1]>(BLOBFILE(path = tensor<string, []>("@model_path/weights/weight.bin"), offset = tensor<uint64, []>(4033664)))];
            tensor<fp32, [128]> model_9_cv1_conv_bias = const()[name = tensor<string, []>("model_9_cv1_conv_bias"), val = tensor<fp32, [128]>(BLOBFILE(path = tensor<string, []>("@model_path/weights/weight.bin"), offset = tensor<uint64, []>(4426944)))];
            tensor<fp32, [128, 256, 1, 1]> model_9_cv1_conv_weight = const()[name = tensor<string, []>("model_9_cv1_conv_weight"), val = tensor<fp32, [128, 256, 1, 1]>(BLOBFILE(path = tensor<string, []>("@model_path/weights/weight.bin"), offset = tensor<uint64, []>(4427520)))];
            tensor<fp32, [256]> model_9_cv2_conv_bias = const()[name = tensor<string, []>("model_9_cv2_conv_bias"), val = tensor<fp32, [256]>(BLOBFILE(path = tensor<string, []>("@model_path/weights/weight.bin"), offset = tensor<uint64, []>(4558656)))];
            tensor<fp32, [256, 512, 1, 1]> model_9_cv2_conv_weight = const()[name = tensor<string, []>("model_9_cv2_conv_weight"), val = tensor<fp32, [256, 512, 1, 1]>(BLOBFILE(path = tensor<string, []>("@model_path/weights/weight.bin"), offset = tensor<uint64, []>(4559744)))];
            tensor<fp32, [128]> model_12_cv1_conv_bias = const()[name = tensor<string, []>("model_12_cv1_conv_bias"), val = tensor<fp32, [128]>(BLOBFILE(path = tensor<string, []>("@model_path/weights/weight.bin"), offset = tensor<uint64, []>(5084096)))];
            tensor<fp32, [128, 384, 1, 1]> model_12_cv1_conv_weight = const()[name = tensor<string, []>("model_12_cv1_conv_weight"), val = tensor<fp32, [128, 384, 1, 1]>(BLOBFILE(path = tensor<string, []>("@model_path/weights/weight.bin"), offset = tensor<uint64, []>(5084672)))];
            tensor<fp32, [64]> model_12_m_0_cv1_conv_bias = const()[name = tensor<string, []>("model_12_m_0_cv1_conv_bias"), val = tensor<fp32, [64]>(BLOBFILE(path = tensor<string, []>("@model_path/weights/weight.bin"), offset = tensor<uint64, []>(5281344)))];
            tensor<fp32, [64, 64, 3, 3]> model_12_m_0_cv1_conv_weight = const()[name = tensor<string, []>("model_12_m_0_cv1_conv_weight"), val = tensor<fp32, [64, 64, 3, 3]>(BLOBFILE(path = tensor<string, []>("@model_path/weights/weight.bin"), offset = tensor<uint64, []>(5281664)))];
            tensor<fp32, [64]> model_12_m_0_cv2_conv_bias = const()[name = tensor<string, []>("model_12_m_0_cv2_conv_bias"), val = tensor<fp32, [64]>(BLOBFILE(path = tensor<string, []>("@model_path/weights/weight.bin"), offset = tensor<uint64, []>(5429184)))];
            tensor<fp32, [64, 64, 3, 3]> model_12_m_0_cv2_conv_weight = const()[name = tensor<string, []>("model_12_m_0_cv2_conv_weight"), val = tensor<fp32, [64, 64, 3, 3]>(BLOBFILE(path = tensor<string, []>("@model_path/weights/weight.bin"), offset = tensor<uint64, []>(5429504)))];
            tensor<fp32, [128]> model_12_cv2_conv_bias = const()[name = tensor<string, []>("model_12_cv2_conv_bias"), val = tensor<fp32, [128]>(BLOBFILE(path = tensor<string, []>("@model_path/weights/weight.bin"), offset = tensor<uint64, []>(5577024)))];
            tensor<fp32, [128, 192, 1, 1]> model_12_cv2_conv_weight = const()[name = tensor<string, []>("model_12_cv2_conv_weight"), val = tensor<fp32, [128, 192, 1, 1]>(BLOBFILE(path = tensor<string, []>("@model_path/weights/weight.bin"), offset = tensor<uint64, []>(5577600)))];
            tensor<fp32, [64]> model_15_cv1_conv_bias = const()[name = tensor<string, []>("model_15_cv1_conv_bias"), val = tensor<fp32, [64]>(BLOBFILE(path = tensor<string, []>("@model_path/weights/weight.bin"), offset = tensor<uint64, []>(5675968)))];
            tensor<fp32, [64, 192, 1, 1]> model_15_cv1_conv_weight = const()[name = tensor<string, []>("model_15_cv1_conv_weight"), val = tensor<fp32, [64, 192, 1, 1]>(BLOBFILE(path = tensor<string, []>("@model_path/weights/weight.bin"), offset = tensor<uint64, []>(5676288)))];
            tensor<fp32, [32]> model_15_m_0_cv1_conv_bias = const()[name = tensor<string, []>("model_15_m_0_cv1_conv_bias"), val = tensor<fp32, [32]>(BLOBFILE(path = tensor<string, []>("@model_path/weights/weight.bin"), offset = tensor<uint64, []>(5725504)))];
            tensor<fp32, [32, 32, 3, 3]> model_15_m_0_cv1_conv_weight = const()[name = tensor<string, []>("model_15_m_0_cv1_conv_weight"), val = tensor<fp32, [32, 32, 3, 3]>(BLOBFILE(path = tensor<string, []>("@model_path/weights/weight.bin"), offset = tensor<uint64, []>(5725696)))];
            tensor<fp32, [32]> model_15_m_0_cv2_conv_bias = const()[name = tensor<string, []>("model_15_m_0_cv2_conv_bias"), val = tensor<fp32, [32]>(BLOBFILE(path = tensor<string, []>("@model_path/weights/weight.bin"), offset = tensor<uint64, []>(5762624)))];
            tensor<fp32, [32, 32, 3, 3]> model_15_m_0_cv2_conv_weight = const()[name = tensor<string, []>("model_15_m_0_cv2_conv_weight"), val = tensor<fp32, [32, 32, 3, 3]>(BLOBFILE(path = tensor<string, []>("@model_path/weights/weight.bin"), offset = tensor<uint64, []>(5762816)))];
            tensor<fp32, [64]> model_15_cv2_conv_bias = const()[name = tensor<string, []>("model_15_cv2_conv_bias"), val = tensor<fp32, [64]>(BLOBFILE(path = tensor<string, []>("@model_path/weights/weight.bin"), offset = tensor<uint64, []>(5799744)))];
            tensor<fp32, [64, 96, 1, 1]> model_15_cv2_conv_weight = const()[name = tensor<string, []>("model_15_cv2_conv_weight"), val = tensor<fp32, [64, 96, 1, 1]>(BLOBFILE(path = tensor<string, []>("@model_path/weights/weight.bin"), offset = tensor<uint64, []>(5800064)))];
            tensor<fp32, [64]> model_16_conv_bias = const()[name = tensor<string, []>("model_16_conv_bias"), val = tensor<fp32, [64]>(BLOBFILE(path = tensor<string, []>("@model_path/weights/weight.bin"), offset = tensor<uint64, []>(5824704)))];
            tensor<fp32, [64, 64, 3, 3]> model_16_conv_weight = const()[name = tensor<string, []>("model_16_conv_weight"), val = tensor<fp32, [64, 64, 3, 3]>(BLOBFILE(path = tensor<string, []>("@model_path/weights/weight.bin"), offset = tensor<uint64, []>(5825024)))];
            tensor<fp32, [128]> model_18_cv1_conv_bias = const()[name = tensor<string, []>("model_18_cv1_conv_bias"), val = tensor<fp32, [128]>(BLOBFILE(path = tensor<string, []>("@model_path/weights/weight.bin"), offset = tensor<uint64, []>(5972544)))];
            tensor<fp32, [128, 192, 1, 1]> model_18_cv1_conv_weight = const()[name = tensor<string, []>("model_18_cv1_conv_weight"), val = tensor<fp32, [128, 192, 1, 1]>(BLOBFILE(path = tensor<string, []>("@model_path/weights/weight.bin"), offset = tensor<uint64, []>(5973120)))];
            tensor<fp32, [64]> model_18_m_0_cv1_conv_bias = const()[name = tensor<string, []>("model_18_m_0_cv1_conv_bias"), val = tensor<fp32, [64]>(BLOBFILE(path = tensor<string, []>("@model_path/weights/weight.bin"), offset = tensor<uint64, []>(6071488)))];
            tensor<fp32, [64, 64, 3, 3]> model_18_m_0_cv1_conv_weight = const()[name = tensor<string, []>("model_18_m_0_cv1_conv_weight"), val = tensor<fp32, [64, 64, 3, 3]>(BLOBFILE(path = tensor<string, []>("@model_path/weights/weight.bin"), offset = tensor<uint64, []>(6071808)))];
            tensor<fp32, [64]> model_18_m_0_cv2_conv_bias = const()[name = tensor<string, []>("model_18_m_0_cv2_conv_bias"), val = tensor<fp32, [64]>(BLOBFILE(path = tensor<string, []>("@model_path/weights/weight.bin"), offset = tensor<uint64, []>(6219328)))];
            tensor<fp32, [64, 64, 3, 3]> model_18_m_0_cv2_conv_weight = const()[name = tensor<string, []>("model_18_m_0_cv2_conv_weight"), val = tensor<fp32, [64, 64, 3, 3]>(BLOBFILE(path = tensor<string, []>("@model_path/weights/weight.bin"), offset = tensor<uint64, []>(6219648)))];
            tensor<fp32, [128]> model_18_cv2_conv_bias = const()[name = tensor<string, []>("model_18_cv2_conv_bias"), val = tensor<fp32, [128]>(BLOBFILE(path = tensor<string, []>("@model_path/weights/weight.bin"), offset = tensor<uint64, []>(6367168)))];
            tensor<fp32, [128, 192, 1, 1]> model_18_cv2_conv_weight = const()[name = tensor<string, []>("model_18_cv2_conv_weight"), val = tensor<fp32, [128, 192, 1, 1]>(BLOBFILE(path = tensor<string, []>("@model_path/weights/weight.bin"), offset = tensor<uint64, []>(6367744)))];
            tensor<fp32, [128]> model_19_conv_bias = const()[name = tensor<string, []>("model_19_conv_bias"), val = tensor<fp32, [128]>(BLOBFILE(path = tensor<string, []>("@model_path/weights/weight.bin"), offset = tensor<uint64, []>(6466112)))];
            tensor<fp32, [128, 128, 3, 3]> model_19_conv_weight = const()[name = tensor<string, []>("model_19_conv_weight"), val = tensor<fp32, [128, 128, 3, 3]>(BLOBFILE(path = tensor<string, []>("@model_path/weights/weight.bin"), offset = tensor<uint64, []>(6466688)))];
            tensor<fp32, [256]> model_21_cv1_conv_bias = const()[name = tensor<string, []>("model_21_cv1_conv_bias"), val = tensor<fp32, [256]>(BLOBFILE(path = tensor<string, []>("@model_path/weights/weight.bin"), offset = tensor<uint64, []>(7056576)))];
            tensor<fp32, [256, 384, 1, 1]> model_21_cv1_conv_weight = const()[name = tensor<string, []>("model_21_cv1_conv_weight"), val = tensor<fp32, [256, 384, 1, 1]>(BLOBFILE(path = tensor<string, []>("@model_path/weights/weight.bin"), offset = tensor<uint64, []>(7057664)))];
            tensor<fp32, [128]> model_21_m_0_cv1_conv_bias = const()[name = tensor<string, []>("model_21_m_0_cv1_conv_bias"), val = tensor<fp32, [128]>(BLOBFILE(path = tensor<string, []>("@model_path/weights/weight.bin"), offset = tensor<uint64, []>(7450944)))];
            tensor<fp32, [128, 128, 3, 3]> model_21_m_0_cv1_conv_weight = const()[name = tensor<string, []>("model_21_m_0_cv1_conv_weight"), val = tensor<fp32, [128, 128, 3, 3]>(BLOBFILE(path = tensor<string, []>("@model_path/weights/weight.bin"), offset = tensor<uint64, []>(7451520)))];
            tensor<fp32, [128]> model_21_m_0_cv2_conv_bias = const()[name = tensor<string, []>("model_21_m_0_cv2_conv_bias"), val = tensor<fp32, [128]>(BLOBFILE(path = tensor<string, []>("@model_path/weights/weight.bin"), offset = tensor<uint64, []>(8041408)))];
            tensor<fp32, [128, 128, 3, 3]> model_21_m_0_cv2_conv_weight = const()[name = tensor<string, []>("model_21_m_0_cv2_conv_weight"), val = tensor<fp32, [128, 128, 3, 3]>(BLOBFILE(path = tensor<string, []>("@model_path/weights/weight.bin"), offset = tensor<uint64, []>(8041984)))];
            tensor<fp32, [256]> model_21_cv2_conv_bias = const()[name = tensor<string, []>("model_21_cv2_conv_bias"), val = tensor<fp32, [256]>(BLOBFILE(path = tensor<string, []>("@model_path/weights/weight.bin"), offset = tensor<uint64, []>(8631872)))];
            tensor<fp32, [256, 384, 1, 1]> model_21_cv2_conv_weight = const()[name = tensor<string, []>("model_21_cv2_conv_weight"), val = tensor<fp32, [256, 384, 1, 1]>(BLOBFILE(path = tensor<string, []>("@model_path/weights/weight.bin"), offset = tensor<uint64, []>(8632960)))];
            tensor<fp32, [64]> model_22_cv2_0_0_conv_bias = const()[name = tensor<string, []>("model_22_cv2_0_0_conv_bias"), val = tensor<fp32, [64]>(BLOBFILE(path = tensor<string, []>("@model_path/weights/weight.bin"), offset = tensor<uint64, []>(9026240)))];
            tensor<fp32, [64, 64, 3, 3]> model_22_cv2_0_0_conv_weight = const()[name = tensor<string, []>("model_22_cv2_0_0_conv_weight"), val = tensor<fp32, [64, 64, 3, 3]>(BLOBFILE(path = tensor<string, []>("@model_path/weights/weight.bin"), offset = tensor<uint64, []>(9026560)))];
            tensor<fp32, [64]> model_22_cv2_0_1_conv_bias = const()[name = tensor<string, []>("model_22_cv2_0_1_conv_bias"), val = tensor<fp32, [64]>(BLOBFILE(path = tensor<string, []>("@model_path/weights/weight.bin"), offset = tensor<uint64, []>(9174080)))];
            tensor<fp32, [64, 64, 3, 3]> model_22_cv2_0_1_conv_weight = const()[name = tensor<string, []>("model_22_cv2_0_1_conv_weight"), val = tensor<fp32, [64, 64, 3, 3]>(BLOBFILE(path = tensor<string, []>("@model_path/weights/weight.bin"), offset = tensor<uint64, []>(9174400)))];
            tensor<fp32, [64]> model_22_cv2_0_2_bias = const()[name = tensor<string, []>("model_22_cv2_0_2_bias"), val = tensor<fp32, [64]>(BLOBFILE(path = tensor<string, []>("@model_path/weights/weight.bin"), offset = tensor<uint64, []>(9321920)))];
            tensor<fp32, [64, 64, 1, 1]> model_22_cv2_0_2_weight = const()[name = tensor<string, []>("model_22_cv2_0_2_weight"), val = tensor<fp32, [64, 64, 1, 1]>(BLOBFILE(path = tensor<string, []>("@model_path/weights/weight.bin"), offset = tensor<uint64, []>(9322240)))];
            tensor<fp32, [64]> model_22_cv2_1_0_conv_bias = const()[name = tensor<string, []>("model_22_cv2_1_0_conv_bias"), val = tensor<fp32, [64]>(BLOBFILE(path = tensor<string, []>("@model_path/weights/weight.bin"), offset = tensor<uint64, []>(9338688)))];
            tensor<fp32, [64, 128, 3, 3]> model_22_cv2_1_0_conv_weight = const()[name = tensor<string, []>("model_22_cv2_1_0_conv_weight"), val = tensor<fp32, [64, 128, 3, 3]>(BLOBFILE(path = tensor<string, []>("@model_path/weights/weight.bin"), offset = tensor<uint64, []>(9339008)))];
            tensor<fp32, [64]> model_22_cv2_1_1_conv_bias = const()[name = tensor<string, []>("model_22_cv2_1_1_conv_bias"), val = tensor<fp32, [64]>(BLOBFILE(path = tensor<string, []>("@model_path/weights/weight.bin"), offset = tensor<uint64, []>(9633984)))];
            tensor<fp32, [64, 64, 3, 3]> model_22_cv2_1_1_conv_weight = const()[name = tensor<string, []>("model_22_cv2_1_1_conv_weight"), val = tensor<fp32, [64, 64, 3, 3]>(BLOBFILE(path = tensor<string, []>("@model_path/weights/weight.bin"), offset = tensor<uint64, []>(9634304)))];
            tensor<fp32, [64]> model_22_cv2_1_2_bias = const()[name = tensor<string, []>("model_22_cv2_1_2_bias"), val = tensor<fp32, [64]>(BLOBFILE(path = tensor<string, []>("@model_path/weights/weight.bin"), offset = tensor<uint64, []>(9781824)))];
            tensor<fp32, [64, 64, 1, 1]> model_22_cv2_1_2_weight = const()[name = tensor<string, []>("model_22_cv2_1_2_weight"), val = tensor<fp32, [64, 64, 1, 1]>(BLOBFILE(path = tensor<string, []>("@model_path/weights/weight.bin"), offset = tensor<uint64, []>(9782144)))];
            tensor<fp32, [64]> model_22_cv2_2_0_conv_bias = const()[name = tensor<string, []>("model_22_cv2_2_0_conv_bias"), val = tensor<fp32, [64]>(BLOBFILE(path = tensor<string, []>("@model_path/weights/weight.bin"), offset = tensor<uint64, []>(9798592)))];
            tensor<fp32, [64, 256, 3, 3]> model_22_cv2_2_0_conv_weight = const()[name = tensor<string, []>("model_22_cv2_2_0_conv_weight"), val = tensor<fp32, [64, 256, 3, 3]>(BLOBFILE(path = tensor<string, []>("@model_path/weights/weight.bin"), offset = tensor<uint64, []>(9798912)))];
            tensor<fp32, [64]> model_22_cv2_2_1_conv_bias = const()[name = tensor<string, []>("model_22_cv2_2_1_conv_bias"), val = tensor<fp32, [64]>(BLOBFILE(path = tensor<string, []>("@model_path/weights/weight.bin"), offset = tensor<uint64, []>(10388800)))];
            tensor<fp32, [64, 64, 3, 3]> model_22_cv2_2_1_conv_weight = const()[name = tensor<string, []>("model_22_cv2_2_1_conv_weight"), val = tensor<fp32, [64, 64, 3, 3]>(BLOBFILE(path = tensor<string, []>("@model_path/weights/weight.bin"), offset = tensor<uint64, []>(10389120)))];
            tensor<fp32, [64]> model_22_cv2_2_2_bias = const()[name = tensor<string, []>("model_22_cv2_2_2_bias"), val = tensor<fp32, [64]>(BLOBFILE(path = tensor<string, []>("@model_path/weights/weight.bin"), offset = tensor<uint64, []>(10536640)))];
            tensor<fp32, [64, 64, 1, 1]> model_22_cv2_2_2_weight = const()[name = tensor<string, []>("model_22_cv2_2_2_weight"), val = tensor<fp32, [64, 64, 1, 1]>(BLOBFILE(path = tensor<string, []>("@model_path/weights/weight.bin"), offset = tensor<uint64, []>(10536960)))];
            tensor<fp32, [80]> model_22_cv3_0_0_conv_bias = const()[name = tensor<string, []>("model_22_cv3_0_0_conv_bias"), val = tensor<fp32, [80]>(BLOBFILE(path = tensor<string, []>("@model_path/weights/weight.bin"), offset = tensor<uint64, []>(10553408)))];
            tensor<fp32, [80, 64, 3, 3]> model_22_cv3_0_0_conv_weight = const()[name = tensor<string, []>("model_22_cv3_0_0_conv_weight"), val = tensor<fp32, [80, 64, 3, 3]>(BLOBFILE(path = tensor<string, []>("@model_path/weights/weight.bin"), offset = tensor<uint64, []>(10553792)))];
            tensor<fp32, [80]> model_22_cv3_0_1_conv_bias = const()[name = tensor<string, []>("model_22_cv3_0_1_conv_bias"), val = tensor<fp32, [80]>(BLOBFILE(path = tensor<string, []>("@model_path/weights/weight.bin"), offset = tensor<uint64, []>(10738176)))];
            tensor<fp32, [80, 80, 3, 3]> model_22_cv3_0_1_conv_weight = const()[name = tensor<string, []>("model_22_cv3_0_1_conv_weight"), val = tensor<fp32, [80, 80, 3, 3]>(BLOBFILE(path = tensor<string, []>("@model_path/weights/weight.bin"), offset = tensor<uint64, []>(10738560)))];
            tensor<fp32, [80]> model_22_cv3_0_2_bias = const()[name = tensor<string, []>("model_22_cv3_0_2_bias"), val = tensor<fp32, [80]>(BLOBFILE(path = tensor<string, []>("@model_path/weights/weight.bin"), offset = tensor<uint64, []>(10969024)))];
            tensor<fp32, [80, 80, 1, 1]> model_22_cv3_0_2_weight = const()[name = tensor<string, []>("model_22_cv3_0_2_weight"), val = tensor<fp32, [80, 80, 1, 1]>(BLOBFILE(path = tensor<string, []>("@model_path/weights/weight.bin"), offset = tensor<uint64, []>(10969408)))];
            tensor<fp32, [80]> model_22_cv3_1_0_conv_bias = const()[name = tensor<string, []>("model_22_cv3_1_0_conv_bias"), val = tensor<fp32, [80]>(BLOBFILE(path = tensor<string, []>("@model_path/weights/weight.bin"), offset = tensor<uint64, []>(10995072)))];
            tensor<fp32, [80, 128, 3, 3]> model_22_cv3_1_0_conv_weight = const()[name = tensor<string, []>("model_22_cv3_1_0_conv_weight"), val = tensor<fp32, [80, 128, 3, 3]>(BLOBFILE(path = tensor<string, []>("@model_path/weights/weight.bin"), offset = tensor<uint64, []>(10995456)))];
            tensor<fp32, [80]> model_22_cv3_1_1_conv_bias = const()[name = tensor<string, []>("model_22_cv3_1_1_conv_bias"), val = tensor<fp32, [80]>(BLOBFILE(path = tensor<string, []>("@model_path/weights/weight.bin"), offset = tensor<uint64, []>(11364160)))];
            tensor<fp32, [80, 80, 3, 3]> model_22_cv3_1_1_conv_weight = const()[name = tensor<string, []>("model_22_cv3_1_1_conv_weight"), val = tensor<fp32, [80, 80, 3, 3]>(BLOBFILE(path = tensor<string, []>("@model_path/weights/weight.bin"), offset = tensor<uint64, []>(11364544)))];
            tensor<fp32, [80]> model_22_cv3_1_2_bias = const()[name = tensor<string, []>("model_22_cv3_1_2_bias"), val = tensor<fp32, [80]>(BLOBFILE(path = tensor<string, []>("@model_path/weights/weight.bin"), offset = tensor<uint64, []>(11595008)))];
            tensor<fp32, [80, 80, 1, 1]> model_22_cv3_1_2_weight = const()[name = tensor<string, []>("model_22_cv3_1_2_weight"), val = tensor<fp32, [80, 80, 1, 1]>(BLOBFILE(path = tensor<string, []>("@model_path/weights/weight.bin"), offset = tensor<uint64, []>(11595392)))];
            tensor<fp32, [80]> model_22_cv3_2_0_conv_bias = const()[name = tensor<string, []>("model_22_cv3_2_0_conv_bias"), val = tensor<fp32, [80]>(BLOBFILE(path = tensor<string, []>("@model_path/weights/weight.bin"), offset = tensor<uint64, []>(11621056)))];
            tensor<fp32, [80, 256, 3, 3]> model_22_cv3_2_0_conv_weight = const()[name = tensor<string, []>("model_22_cv3_2_0_conv_weight"), val = tensor<fp32, [80, 256, 3, 3]>(BLOBFILE(path = tensor<string, []>("@model_path/weights/weight.bin"), offset = tensor<uint64, []>(11621440)))];
            tensor<fp32, [80]> model_22_cv3_2_1_conv_bias = const()[name = tensor<string, []>("model_22_cv3_2_1_conv_bias"), val = tensor<fp32, [80]>(BLOBFILE(path = tensor<string, []>("@model_path/weights/weight.bin"), offset = tensor<uint64, []>(12358784)))];
            tensor<fp32, [80, 80, 3, 3]> model_22_cv3_2_1_conv_weight = const()[name = tensor<string, []>("model_22_cv3_2_1_conv_weight"), val = tensor<fp32, [80, 80, 3, 3]>(BLOBFILE(path = tensor<string, []>("@model_path/weights/weight.bin"), offset = tensor<uint64, []>(12359168)))];
            tensor<fp32, [80]> model_22_cv3_2_2_bias = const()[name = tensor<string, []>("model_22_cv3_2_2_bias"), val = tensor<fp32, [80]>(BLOBFILE(path = tensor<string, []>("@model_path/weights/weight.bin"), offset = tensor<uint64, []>(12589632)))];
            tensor<fp32, [80, 80, 1, 1]> model_22_cv3_2_2_weight = const()[name = tensor<string, []>("model_22_cv3_2_2_weight"), val = tensor<fp32, [80, 80, 1, 1]>(BLOBFILE(path = tensor<string, []>("@model_path/weights/weight.bin"), offset = tensor<uint64, []>(12590016)))];
            tensor<fp32, [1, 16, 1, 1]> model_22_dfl_conv_weight = const()[name = tensor<string, []>("model_22_dfl_conv_weight"), val = tensor<fp32, [1, 16, 1, 1]>(BLOBFILE(path = tensor<string, []>("@model_path/weights/weight.bin"), offset = tensor<uint64, []>(12615680)))];
            tensor<string, []> input_1_pad_type_0 = const()[name = tensor<string, []>("input_1_pad_type_0"), val = tensor<string, []>("custom")];
            tensor<int32, [4]> input_1_pad_0 = const()[name = tensor<string, []>("input_1_pad_0"), val = tensor<int32, [4]>([1, 1, 1, 1])];
            tensor<int32, [2]> input_1_strides_0 = const()[name = tensor<string, []>("input_1_strides_0"), val = tensor<int32, [2]>([2, 2])];
            tensor<int32, [2]> input_1_dilations_0 = const()[name = tensor<string, []>("input_1_dilations_0"), val = tensor<int32, [2]>([1, 1])];
            tensor<int32, []> input_1_groups_0 = const()[name = tensor<string, []>("input_1_groups_0"), val = tensor<int32, []>(1)];
            tensor<fp32, [1, 16, 320, 320]> input_1 = conv(bias = model_0_conv_bias, dilations = input_1_dilations_0, groups = input_1_groups_0, pad = input_1_pad_0, pad_type = input_1_pad_type_0, strides = input_1_strides_0, weight = model_0_conv_weight, x = image__scaled__)[name = tensor<string, []>("input_1")];
            tensor<fp32, [1, 16, 320, 320]> input_3 = silu(x = input_1)[name = tensor<string, []>("input_3")];
            tensor<string, []> input_5_pad_type_0 = const()[name = tensor<string, []>("input_5_pad_type_0"), val = tensor<string, []>("custom")];
            tensor<int32, [4]> input_5_pad_0 = const()[name = tensor<string, []>("input_5_pad_0"), val = tensor<int32, [4]>([1, 1, 1, 1])];
            tensor<int32, [2]> input_5_strides_0 = const()[name = tensor<string, []>("input_5_strides_0"), val = tensor<int32, [2]>([2, 2])];
            tensor<int32, [2]> input_5_dilations_0 = const()[name = tensor<string, []>("input_5_dilations_0"), val = tensor<int32, [2]>([1, 1])];
            tensor<int32, []> input_5_groups_0 = const()[name = tensor<string, []>("input_5_groups_0"), val = tensor<int32, []>(1)];
            tensor<fp32, [1, 32, 160, 160]> input_5 = conv(bias = model_1_conv_bias, dilations = input_5_dilations_0, groups = input_5_groups_0, pad = input_5_pad_0, pad_type = input_5_pad_type_0, strides = input_5_strides_0, weight = model_1_conv_weight, x = input_3)[name = tensor<string, []>("input_5")];
            tensor<fp32, [1, 32, 160, 160]> input_7 = silu(x = input_5)[name = tensor<string, []>("input_7")];
            tensor<int32, []> var_68 = const()[name = tensor<string, []>("op_68"), val = tensor<int32, []>(1)];
            tensor<string, []> input_9_pad_type_0 = const()[name = tensor<string, []>("input_9_pad_type_0"), val = tensor<string, []>("valid")];
            tensor<int32, [2]> input_9_strides_0 = const()[name = tensor<string, []>("input_9_strides_0"), val = tensor<int32, [2]>([1, 1])];
            tensor<int32, [4]> input_9_pad_0 = const()[name = tensor<string, []>("input_9_pad_0"), val = tensor<int32, [4]>([0, 0, 0, 0])];
            tensor<int32, [2]> input_9_dilations_0 = const()[name = tensor<string, []>("input_9_dilations_0"), val = tensor<int32, [2]>([1, 1])];
            tensor<int32, []> input_9_groups_0 = const()[name = tensor<string, []>("input_9_groups_0"), val = tensor<int32, []>(1)];
            tensor<fp32, [1, 32, 160, 160]> input_9 = conv(bias = model_2_cv1_conv_bias, dilations = input_9_dilations_0, groups = input_9_groups_0, pad = input_9_pad_0, pad_type = input_9_pad_type_0, strides = input_9_strides_0, weight = model_2_cv1_conv_weight, x = input_7)[name = tensor<string, []>("input_9")];
            tensor<fp32, [1, 32, 160, 160]> var_81 = silu(x = input_9)[name = tensor<string, []>("op_81")];
            tensor<int32, [2]> var_82 = const()[name = tensor<string, []>("op_82"), val = tensor<int32, [2]>([16, 16])];
            tensor<int32, []> var_83_axis_0 = const()[name = tensor<string, []>("op_83_axis_0"), val = tensor<int32, []>(1)];
            tensor<fp32, [1, 16, 160, 160]> var_83_0, tensor<fp32, [1, 16, 160, 160]> var_83_1 = split(axis = var_83_axis_0, split_sizes = var_82, x = var_81)[name = tensor<string, []>("op_83")];
            tensor<string, []> input_13_pad_type_0 = const()[name = tensor<string, []>("input_13_pad_type_0"), val = tensor<string, []>("custom")];
            tensor<int32, [4]> input_13_pad_0 = const()[name = tensor<string, []>("input_13_pad_0"), val = tensor<int32, [4]>([1, 1, 1, 1])];
            tensor<int32, [2]> input_13_strides_0 = const()[name = tensor<string, []>("input_13_strides_0"), val = tensor<int32, [2]>([1, 1])];
            tensor<int32, [2]> input_13_dilations_0 = const()[name = tensor<string, []>("input_13_dilations_0"), val = tensor<int32, [2]>([1, 1])];
            tensor<int32, []> input_13_groups_0 = const()[name = tensor<string, []>("input_13_groups_0"), val = tensor<int32, []>(1)];
            tensor<fp32, [1, 16, 160, 160]> input_13 = conv(bias = model_2_m_0_cv1_conv_bias, dilations = input_13_dilations_0, groups = input_13_groups_0, pad = input_13_pad_0, pad_type = input_13_pad_type_0, strides = input_13_strides_0, weight = model_2_m_0_cv1_conv_weight, x = var_83_1)[name = tensor<string, []>("input_13")];
            tensor<fp32, [1, 16, 160, 160]> input_15 = silu(x = input_13)[name = tensor<string, []>("input_15")];
            tensor<string, []> input_17_pad_type_0 = const()[name = tensor<string, []>("input_17_pad_type_0"), val = tensor<string, []>("custom")];
            tensor<int32, [4]> input_17_pad_0 = const()[name = tensor<string, []>("input_17_pad_0"), val = tensor<int32, [4]>([1, 1, 1, 1])];
            tensor<int32, [2]> input_17_strides_0 = const()[name = tensor<string, []>("input_17_strides_0"), val = tensor<int32, [2]>([1, 1])];
            tensor<int32, [2]> input_17_dilations_0 = const()[name = tensor<string, []>("input_17_dilations_0"), val = tensor<int32, [2]>([1, 1])];
            tensor<int32, []> input_17_groups_0 = const()[name = tensor<string, []>("input_17_groups_0"), val = tensor<int32, []>(1)];
            tensor<fp32, [1, 16, 160, 160]> input_17 = conv(bias = model_2_m_0_cv2_conv_bias, dilations = input_17_dilations_0, groups = input_17_groups_0, pad = input_17_pad_0, pad_type = input_17_pad_type_0, strides = input_17_strides_0, weight = model_2_m_0_cv2_conv_weight, x = input_15)[name = tensor<string, []>("input_17")];
            tensor<fp32, [1, 16, 160, 160]> var_105 = silu(x = input_17)[name = tensor<string, []>("op_105")];
            tensor<fp32, [1, 16, 160, 160]> var_106 = add(x = var_83_1, y = var_105)[name = tensor<string, []>("op_106")];
            tensor<bool, []> input_19_interleave_0 = const()[name = tensor<string, []>("input_19_interleave_0"), val = tensor<bool, []>(false)];
            tensor<fp32, [1, 48, 160, 160]> input_19 = concat(axis = var_68, interleave = input_19_interleave_0, values = (var_83_0, var_83_1, var_106))[name = tensor<string, []>("input_19")];
            tensor<string, []> input_21_pad_type_0 = const()[name = tensor<string, []>("input_21_pad_type_0"), val = tensor<string, []>("valid")];
            tensor<int32, [2]> input_21_strides_0 = const()[name = tensor<string, []>("input_21_strides_0"), val = tensor<int32, [2]>([1, 1])];
            tensor<int32, [4]> input_21_pad_0 = const()[name = tensor<string, []>("input_21_pad_0"), val = tensor<int32, [4]>([0, 0, 0, 0])];
            tensor<int32, [2]> input_21_dilations_0 = const()[name = tensor<string, []>("input_21_dilations_0"), val = tensor<int32, [2]>([1, 1])];
            tensor<int32, []> input_21_groups_0 = const()[name = tensor<string, []>("input_21_groups_0"), val = tensor<int32, []>(1)];
            tensor<fp32, [1, 32, 160, 160]> input_21 = conv(bias = model_2_cv2_conv_bias, dilations = input_21_dilations_0, groups = input_21_groups_0, pad = input_21_pad_0, pad_type = input_21_pad_type_0, strides = input_21_strides_0, weight = model_2_cv2_conv_weight, x = input_19)[name = tensor<string, []>("input_21")];
            tensor<fp32, [1, 32, 160, 160]> input_23 = silu(x = input_21)[name = tensor<string, []>("input_23")];
            tensor<string, []> input_25_pad_type_0 = const()[name = tensor<string, []>("input_25_pad_type_0"), val = tensor<string, []>("custom")];
            tensor<int32, [4]> input_25_pad_0 = const()[name = tensor<string, []>("input_25_pad_0"), val = tensor<int32, [4]>([1, 1, 1, 1])];
            tensor<int32, [2]> input_25_strides_0 = const()[name = tensor<string, []>("input_25_strides_0"), val = tensor<int32, [2]>([2, 2])];
            tensor<int32, [2]> input_25_dilations_0 = const()[name = tensor<string, []>("input_25_dilations_0"), val = tensor<int32, [2]>([1, 1])];
            tensor<int32, []> input_25_groups_0 = const()[name = tensor<string, []>("input_25_groups_0"), val = tensor<int32, []>(1)];
            tensor<fp32, [1, 64, 80, 80]> input_25 = conv(bias = model_3_conv_bias, dilations = input_25_dilations_0, groups = input_25_groups_0, pad = input_25_pad_0, pad_type = input_25_pad_type_0, strides = input_25_strides_0, weight = model_3_conv_weight, x = input_23)[name = tensor<string, []>("input_25")];
            tensor<fp32, [1, 64, 80, 80]> input_27 = silu(x = input_25)[name = tensor<string, []>("input_27")];
            tensor<int32, []> var_136 = const()[name = tensor<string, []>("op_136"), val = tensor<int32, []>(1)];
            tensor<string, []> input_29_pad_type_0 = const()[name = tensor<string, []>("input_29_pad_type_0"), val = tensor<string, []>("valid")];
            tensor<int32, [2]> input_29_strides_0 = const()[name = tensor<string, []>("input_29_strides_0"), val = tensor<int32, [2]>([1, 1])];
            tensor<int32, [4]> input_29_pad_0 = const()[name = tensor<string, []>("input_29_pad_0"), val = tensor<int32, [4]>([0, 0, 0, 0])];
            tensor<int32, [2]> input_29_dilations_0 = const()[name = tensor<string, []>("input_29_dilations_0"), val = tensor<int32, [2]>([1, 1])];
            tensor<int32, []> input_29_groups_0 = const()[name = tensor<string, []>("input_29_groups_0"), val = tensor<int32, []>(1)];
            tensor<fp32, [1, 64, 80, 80]> input_29 = conv(bias = model_4_cv1_conv_bias, dilations = input_29_dilations_0, groups = input_29_groups_0, pad = input_29_pad_0, pad_type = input_29_pad_type_0, strides = input_29_strides_0, weight = model_4_cv1_conv_weight, x = input_27)[name = tensor<string, []>("input_29")];
            tensor<fp32, [1, 64, 80, 80]> var_151 = silu(x = input_29)[name = tensor<string, []>("op_151")];
            tensor<int32, [2]> var_152 = const()[name = tensor<string, []>("op_152"), val = tensor<int32, [2]>([32, 32])];
            tensor<int32, []> var_153_axis_0 = const()[name = tensor<string, []>("op_153_axis_0"), val = tensor<int32, []>(1)];
            tensor<fp32, [1, 32, 80, 80]> var_153_0, tensor<fp32, [1, 32, 80, 80]> var_153_1 = split(axis = var_153_axis_0, split_sizes = var_152, x = var_151)[name = tensor<string, []>("op_153")];
            tensor<string, []> input_33_pad_type_0 = const()[name = tensor<string, []>("input_33_pad_type_0"), val = tensor<string, []>("custom")];
            tensor<int32, [4]> input_33_pad_0 = const()[name = tensor<string, []>("input_33_pad_0"), val = tensor<int32, [4]>([1, 1, 1, 1])];
            tensor<int32, [2]> input_33_strides_0 = const()[name = tensor<string, []>("input_33_strides_0"), val = tensor<int32, [2]>([1, 1])];
            tensor<int32, [2]> input_33_dilations_0 = const()[name = tensor<string, []>("input_33_dilations_0"), val = tensor<int32, [2]>([1, 1])];
            tensor<int32, []> input_33_groups_0 = const()[name = tensor<string, []>("input_33_groups_0"), val = tensor<int32, []>(1)];
            tensor<fp32, [1, 32, 80, 80]> input_33 = conv(bias = model_4_m_0_cv1_conv_bias, dilations = input_33_dilations_0, groups = input_33_groups_0, pad = input_33_pad_0, pad_type = input_33_pad_type_0, strides = input_33_strides_0, weight = model_4_m_0_cv1_conv_weight, x = var_153_1)[name = tensor<string, []>("input_33")];
            tensor<fp32, [1, 32, 80, 80]> input_35 = silu(x = input_33)[name = tensor<string, []>("input_35")];
            tensor<string, []> input_37_pad_type_0 = const()[name = tensor<string, []>("input_37_pad_type_0"), val = tensor<string, []>("custom")];
            tensor<int32, [4]> input_37_pad_0 = const()[name = tensor<string, []>("input_37_pad_0"), val = tensor<int32, [4]>([1, 1, 1, 1])];
            tensor<int32, [2]> input_37_strides_0 = const()[name = tensor<string, []>("input_37_strides_0"), val = tensor<int32, [2]>([1, 1])];
            tensor<int32, [2]> input_37_dilations_0 = const()[name = tensor<string, []>("input_37_dilations_0"), val = tensor<int32, [2]>([1, 1])];
            tensor<int32, []> input_37_groups_0 = const()[name = tensor<string, []>("input_37_groups_0"), val = tensor<int32, []>(1)];
            tensor<fp32, [1, 32, 80, 80]> input_37 = conv(bias = model_4_m_0_cv2_conv_bias, dilations = input_37_dilations_0, groups = input_37_groups_0, pad = input_37_pad_0, pad_type = input_37_pad_type_0, strides = input_37_strides_0, weight = model_4_m_0_cv2_conv_weight, x = input_35)[name = tensor<string, []>("input_37")];
            tensor<fp32, [1, 32, 80, 80]> var_175 = silu(x = input_37)[name = tensor<string, []>("op_175")];
            tensor<fp32, [1, 32, 80, 80]> input_39 = add(x = var_153_1, y = var_175)[name = tensor<string, []>("input_39")];
            tensor<string, []> input_41_pad_type_0 = const()[name = tensor<string, []>("input_41_pad_type_0"), val = tensor<string, []>("custom")];
            tensor<int32, [4]> input_41_pad_0 = const()[name = tensor<string, []>("input_41_pad_0"), val = tensor<int32, [4]>([1, 1, 1, 1])];
            tensor<int32, [2]> input_41_strides_0 = const()[name = tensor<string, []>("input_41_strides_0"), val = tensor<int32, [2]>([1, 1])];
            tensor<int32, [2]> input_41_dilations_0 = const()[name = tensor<string, []>("input_41_dilations_0"), val = tensor<int32, [2]>([1, 1])];
            tensor<int32, []> input_41_groups_0 = const()[name = tensor<string, []>("input_41_groups_0"), val = tensor<int32, []>(1)];
            tensor<fp32, [1, 32, 80, 80]> input_41 = conv(bias = model_4_m_1_cv1_conv_bias, dilations = input_41_dilations_0, groups = input_41_groups_0, pad = input_41_pad_0, pad_type = input_41_pad_type_0, strides = input_41_strides_0, weight = model_4_m_1_cv1_conv_weight, x = input_39)[name = tensor<string, []>("input_41")];
            tensor<fp32, [1, 32, 80, 80]> input_43 = silu(x = input_41)[name = tensor<string, []>("input_43")];
            tensor<string, []> input_45_pad_type_0 = const()[name = tensor<string, []>("input_45_pad_type_0"), val = tensor<string, []>("custom")];
            tensor<int32, [4]> input_45_pad_0 = const()[name = tensor<string, []>("input_45_pad_0"), val = tensor<int32, [4]>([1, 1, 1, 1])];
            tensor<int32, [2]> input_45_strides_0 = const()[name = tensor<string, []>("input_45_strides_0"), val = tensor<int32, [2]>([1, 1])];
            tensor<int32, [2]> input_45_dilations_0 = const()[name = tensor<string, []>("input_45_dilations_0"), val = tensor<int32, [2]>([1, 1])];
            tensor<int32, []> input_45_groups_0 = const()[name = tensor<string, []>("input_45_groups_0"), val = tensor<int32, []>(1)];
            tensor<fp32, [1, 32, 80, 80]> input_45 = conv(bias = model_4_m_1_cv2_conv_bias, dilations = input_45_dilations_0, groups = input_45_groups_0, pad = input_45_pad_0, pad_type = input_45_pad_type_0, strides = input_45_strides_0, weight = model_4_m_1_cv2_conv_weight, x = input_43)[name = tensor<string, []>("input_45")];
            tensor<fp32, [1, 32, 80, 80]> var_196 = silu(x = input_45)[name = tensor<string, []>("op_196")];
            tensor<fp32, [1, 32, 80, 80]> var_197 = add(x = input_39, y = var_196)[name = tensor<string, []>("op_197")];
            tensor<bool, []> input_47_interleave_0 = const()[name = tensor<string, []>("input_47_interleave_0"), val = tensor<bool, []>(false)];
            tensor<fp32, [1, 128, 80, 80]> input_47 = concat(axis = var_136, interleave = input_47_interleave_0, values = (var_153_0, var_153_1, input_39, var_197))[name = tensor<string, []>("input_47")];
            tensor<string, []> input_49_pad_type_0 = const()[name = tensor<string, []>("input_49_pad_type_0"), val = tensor<string, []>("valid")];
            tensor<int32, [2]> input_49_strides_0 = const()[name = tensor<string, []>("input_49_strides_0"), val = tensor<int32, [2]>([1, 1])];
            tensor<int32, [4]> input_49_pad_0 = const()[name = tensor<string, []>("input_49_pad_0"), val = tensor<int32, [4]>([0, 0, 0, 0])];
            tensor<int32, [2]> input_49_dilations_0 = const()[name = tensor<string, []>("input_49_dilations_0"), val = tensor<int32, [2]>([1, 1])];
            tensor<int32, []> input_49_groups_0 = const()[name = tensor<string, []>("input_49_groups_0"), val = tensor<int32, []>(1)];
            tensor<fp32, [1, 64, 80, 80]> input_49 = conv(bias = model_4_cv2_conv_bias, dilations = input_49_dilations_0, groups = input_49_groups_0, pad = input_49_pad_0, pad_type = input_49_pad_type_0, strides = input_49_strides_0, weight = model_4_cv2_conv_weight, x = input_47)[name = tensor<string, []>("input_49")];
            tensor<fp32, [1, 64, 80, 80]> input_51 = silu(x = input_49)[name = tensor<string, []>("input_51")];
            tensor<string, []> input_53_pad_type_0 = const()[name = tensor<string, []>("input_53_pad_type_0"), val = tensor<string, []>("custom")];
            tensor<int32, [4]> input_53_pad_0 = const()[name = tensor<string, []>("input_53_pad_0"), val = tensor<int32, [4]>([1, 1, 1, 1])];
            tensor<int32, [2]> input_53_strides_0 = const()[name = tensor<string, []>("input_53_strides_0"), val = tensor<int32, [2]>([2, 2])];
            tensor<int32, [2]> input_53_dilations_0 = const()[name = tensor<string, []>("input_53_dilations_0"), val = tensor<int32, [2]>([1, 1])];
            tensor<int32, []> input_53_groups_0 = const()[name = tensor<string, []>("input_53_groups_0"), val = tensor<int32, []>(1)];
            tensor<fp32, [1, 128, 40, 40]> input_53 = conv(bias = model_5_conv_bias, dilations = input_53_dilations_0, groups = input_53_groups_0, pad = input_53_pad_0, pad_type = input_53_pad_type_0, strides = input_53_strides_0, weight = model_5_conv_weight, x = input_51)[name = tensor<string, []>("input_53")];
            tensor<fp32, [1, 128, 40, 40]> input_55 = silu(x = input_53)[name = tensor<string, []>("input_55")];
            tensor<int32, []> var_227 = const()[name = tensor<string, []>("op_227"), val = tensor<int32, []>(1)];
            tensor<string, []> input_57_pad_type_0 = const()[name = tensor<string, []>("input_57_pad_type_0"), val = tensor<string, []>("valid")];
            tensor<int32, [2]> input_57_strides_0 = const()[name = tensor<string, []>("input_57_strides_0"), val = tensor<int32, [2]>([1, 1])];
            tensor<int32, [4]> input_57_pad_0 = const()[name = tensor<string, []>("input_57_pad_0"), val = tensor<int32, [4]>([0, 0, 0, 0])];
            tensor<int32, [2]> input_57_dilations_0 = const()[name = tensor<string, []>("input_57_dilations_0"), val = tensor<int32, [2]>([1, 1])];
            tensor<int32, []> input_57_groups_0 = const()[name = tensor<string, []>("input_57_groups_0"), val = tensor<int32, []>(1)];
            tensor<fp32, [1, 128, 40, 40]> input_57 = conv(bias = model_6_cv1_conv_bias, dilations = input_57_dilations_0, groups = input_57_groups_0, pad = input_57_pad_0, pad_type = input_57_pad_type_0, strides = input_57_strides_0, weight = model_6_cv1_conv_weight, x = input_55)[name = tensor<string, []>("input_57")];
            tensor<fp32, [1, 128, 40, 40]> var_242 = silu(x = input_57)[name = tensor<string, []>("op_242")];
            tensor<int32, [2]> var_243 = const()[name = tensor<string, []>("op_243"), val = tensor<int32, [2]>([64, 64])];
            tensor<int32, []> var_244_axis_0 = const()[name = tensor<string, []>("op_244_axis_0"), val = tensor<int32, []>(1)];
            tensor<fp32, [1, 64, 40, 40]> var_244_0, tensor<fp32, [1, 64, 40, 40]> var_244_1 = split(axis = var_244_axis_0, split_sizes = var_243, x = var_242)[name = tensor<string, []>("op_244")];
            tensor<string, []> input_61_pad_type_0 = const()[name = tensor<string, []>("input_61_pad_type_0"), val = tensor<string, []>("custom")];
            tensor<int32, [4]> input_61_pad_0 = const()[name = tensor<string, []>("input_61_pad_0"), val = tensor<int32, [4]>([1, 1, 1, 1])];
            tensor<int32, [2]> input_61_strides_0 = const()[name = tensor<string, []>("input_61_strides_0"), val = tensor<int32, [2]>([1, 1])];
            tensor<int32, [2]> input_61_dilations_0 = const()[name = tensor<string, []>("input_61_dilations_0"), val = tensor<int32, [2]>([1, 1])];
            tensor<int32, []> input_61_groups_0 = const()[name = tensor<string, []>("input_61_groups_0"), val = tensor<int32, []>(1)];
            tensor<fp32, [1, 64, 40, 40]> input_61 = conv(bias = model_6_m_0_cv1_conv_bias, dilations = input_61_dilations_0, groups = input_61_groups_0, pad = input_61_pad_0, pad_type = input_61_pad_type_0, strides = input_61_strides_0, weight = model_6_m_0_cv1_conv_weight, x = var_244_1)[name = tensor<string, []>("input_61")];
            tensor<fp32, [1, 64, 40, 40]> input_63 = silu(x = input_61)[name = tensor<string, []>("input_63")];
            tensor<string, []> input_65_pad_type_0 = const()[name = tensor<string, []>("input_65_pad_type_0"), val = tensor<string, []>("custom")];
            tensor<int32, [4]> input_65_pad_0 = const()[name = tensor<string, []>("input_65_pad_0"), val = tensor<int32, [4]>([1, 1, 1, 1])];
            tensor<int32, [2]> input_65_strides_0 = const()[name = tensor<string, []>("input_65_strides_0"), val = tensor<int32, [2]>([1, 1])];
            tensor<int32, [2]> input_65_dilations_0 = const()[name = tensor<string, []>("input_65_dilations_0"), val = tensor<int32, [2]>([1, 1])];
            tensor<int32, []> input_65_groups_0 = const()[name = tensor<string, []>("input_65_groups_0"), val = tensor<int32, []>(1)];
            tensor<fp32, [1, 64, 40, 40]> input_65 = conv(bias = model_6_m_0_cv2_conv_bias, dilations = input_65_dilations_0, groups = input_65_groups_0, pad = input_65_pad_0, pad_type = input_65_pad_type_0, strides = input_65_strides_0, weight = model_6_m_0_cv2_conv_weight, x = input_63)[name = tensor<string, []>("input_65")];
            tensor<fp32, [1, 64, 40, 40]> var_266 = silu(x = input_65)[name = tensor<string, []>("op_266")];
            tensor<fp32, [1, 64, 40, 40]> input_67 = add(x = var_244_1, y = var_266)[name = tensor<string, []>("input_67")];
            tensor<string, []> input_69_pad_type_0 = const()[name = tensor<string, []>("input_69_pad_type_0"), val = tensor<string, []>("custom")];
            tensor<int32, [4]> input_69_pad_0 = const()[name = tensor<string, []>("input_69_pad_0"), val = tensor<int32, [4]>([1, 1, 1, 1])];
            tensor<int32, [2]> input_69_strides_0 = const()[name = tensor<string, []>("input_69_strides_0"), val = tensor<int32, [2]>([1, 1])];
            tensor<int32, [2]> input_69_dilations_0 = const()[name = tensor<string, []>("input_69_dilations_0"), val = tensor<int32, [2]>([1, 1])];
            tensor<int32, []> input_69_groups_0 = const()[name = tensor<string, []>("input_69_groups_0"), val = tensor<int32, []>(1)];
            tensor<fp32, [1, 64, 40, 40]> input_69 = conv(bias = model_6_m_1_cv1_conv_bias, dilations = input_69_dilations_0, groups = input_69_groups_0, pad = input_69_pad_0, pad_type = input_69_pad_type_0, strides = input_69_strides_0, weight = model_6_m_1_cv1_conv_weight, x = input_67)[name = tensor<string, []>("input_69")];
            tensor<fp32, [1, 64, 40, 40]> input_71 = silu(x = input_69)[name = tensor<string, []>("input_71")];
            tensor<string, []> input_73_pad_type_0 = const()[name = tensor<string, []>("input_73_pad_type_0"), val = tensor<string, []>("custom")];
            tensor<int32, [4]> input_73_pad_0 = const()[name = tensor<string, []>("input_73_pad_0"), val = tensor<int32, [4]>([1, 1, 1, 1])];
            tensor<int32, [2]> input_73_strides_0 = const()[name = tensor<string, []>("input_73_strides_0"), val = tensor<int32, [2]>([1, 1])];
            tensor<int32, [2]> input_73_dilations_0 = const()[name = tensor<string, []>("input_73_dilations_0"), val = tensor<int32, [2]>([1, 1])];
            tensor<int32, []> input_73_groups_0 = const()[name = tensor<string, []>("input_73_groups_0"), val = tensor<int32, []>(1)];
            tensor<fp32, [1, 64, 40, 40]> input_73 = conv(bias = model_6_m_1_cv2_conv_bias, dilations = input_73_dilations_0, groups = input_73_groups_0, pad = input_73_pad_0, pad_type = input_73_pad_type_0, strides = input_73_strides_0, weight = model_6_m_1_cv2_conv_weight, x = input_71)[name = tensor<string, []>("input_73")];
            tensor<fp32, [1, 64, 40, 40]> var_287 = silu(x = input_73)[name = tensor<string, []>("op_287")];
            tensor<fp32, [1, 64, 40, 40]> var_288 = add(x = input_67, y = var_287)[name = tensor<string, []>("op_288")];
            tensor<bool, []> input_75_interleave_0 = const()[name = tensor<string, []>("input_75_interleave_0"), val = tensor<bool, []>(false)];
            tensor<fp32, [1, 256, 40, 40]> input_75 = concat(axis = var_227, interleave = input_75_interleave_0, values = (var_244_0, var_244_1, input_67, var_288))[name = tensor<string, []>("input_75")];
            tensor<string, []> input_77_pad_type_0 = const()[name = tensor<string, []>("input_77_pad_type_0"), val = tensor<string, []>("valid")];
            tensor<int32, [2]> input_77_strides_0 = const()[name = tensor<string, []>("input_77_strides_0"), val = tensor<int32, [2]>([1, 1])];
            tensor<int32, [4]> input_77_pad_0 = const()[name = tensor<string, []>("input_77_pad_0"), val = tensor<int32, [4]>([0, 0, 0, 0])];
            tensor<int32, [2]> input_77_dilations_0 = const()[name = tensor<string, []>("input_77_dilations_0"), val = tensor<int32, [2]>([1, 1])];
            tensor<int32, []> input_77_groups_0 = const()[name = tensor<string, []>("input_77_groups_0"), val = tensor<int32, []>(1)];
            tensor<fp32, [1, 128, 40, 40]> input_77 = conv(bias = model_6_cv2_conv_bias, dilations = input_77_dilations_0, groups = input_77_groups_0, pad = input_77_pad_0, pad_type = input_77_pad_type_0, strides = input_77_strides_0, weight = model_6_cv2_conv_weight, x = input_75)[name = tensor<string, []>("input_77")];
            tensor<fp32, [1, 128, 40, 40]> input_79 = silu(x = input_77)[name = tensor<string, []>("input_79")];
            tensor<string, []> input_81_pad_type_0 = const()[name = tensor<string, []>("input_81_pad_type_0"), val = tensor<string, []>("custom")];
            tensor<int32, [4]> input_81_pad_0 = const()[name = tensor<string, []>("input_81_pad_0"), val = tensor<int32, [4]>([1, 1, 1, 1])];
            tensor<int32, [2]> input_81_strides_0 = const()[name = tensor<string, []>("input_81_strides_0"), val = tensor<int32, [2]>([2, 2])];
            tensor<int32, [2]> input_81_dilations_0 = const()[name = tensor<string, []>("input_81_dilations_0"), val = tensor<int32, [2]>([1, 1])];
            tensor<int32, []> input_81_groups_0 = const()[name = tensor<string, []>("input_81_groups_0"), val = tensor<int32, []>(1)];
            tensor<fp32, [1, 256, 20, 20]> input_81 = conv(bias = model_7_conv_bias, dilations = input_81_dilations_0, groups = input_81_groups_0, pad = input_81_pad_0, pad_type = input_81_pad_type_0, strides = input_81_strides_0, weight = model_7_conv_weight, x = input_79)[name = tensor<string, []>("input_81")];
            tensor<fp32, [1, 256, 20, 20]> input_83 = silu(x = input_81)[name = tensor<string, []>("input_83")];
            tensor<int32, []> var_318 = const()[name = tensor<string, []>("op_318"), val = tensor<int32, []>(1)];
            tensor<string, []> input_85_pad_type_0 = const()[name = tensor<string, []>("input_85_pad_type_0"), val = tensor<string, []>("valid")];
            tensor<int32, [2]> input_85_strides_0 = const()[name = tensor<string, []>("input_85_strides_0"), val = tensor<int32, [2]>([1, 1])];
            tensor<int32, [4]> input_85_pad_0 = const()[name = tensor<string, []>("input_85_pad_0"), val = tensor<int32, [4]>([0, 0, 0, 0])];
            tensor<int32, [2]> input_85_dilations_0 = const()[name = tensor<string, []>("input_85_dilations_0"), val = tensor<int32, [2]>([1, 1])];
            tensor<int32, []> input_85_groups_0 = const()[name = tensor<string, []>("input_85_groups_0"), val = tensor<int32, []>(1)];
            tensor<fp32, [1, 256, 20, 20]> input_85 = conv(bias = model_8_cv1_conv_bias, dilations = input_85_dilations_0, groups = input_85_groups_0, pad = input_85_pad_0, pad_type = input_85_pad_type_0, strides = input_85_strides_0, weight = model_8_cv1_conv_weight, x = input_83)[name = tensor<string, []>("input_85")];
            tensor<fp32, [1, 256, 20, 20]> var_331 = silu(x = input_85)[name = tensor<string, []>("op_331")];
            tensor<int32, [2]> var_332 = const()[name = tensor<string, []>("op_332"), val = tensor<int32, [2]>([128, 128])];
            tensor<int32, []> var_333_axis_0 = const()[name = tensor<string, []>("op_333_axis_0"), val = tensor<int32, []>(1)];
            tensor<fp32, [1, 128, 20, 20]> var_333_0, tensor<fp32, [1, 128, 20, 20]> var_333_1 = split(axis = var_333_axis_0, split_sizes = var_332, x = var_331)[name = tensor<string, []>("op_333")];
            tensor<string, []> input_89_pad_type_0 = const()[name = tensor<string, []>("input_89_pad_type_0"), val = tensor<string, []>("custom")];
            tensor<int32, [4]> input_89_pad_0 = const()[name = tensor<string, []>("input_89_pad_0"), val = tensor<int32, [4]>([1, 1, 1, 1])];
            tensor<int32, [2]> input_89_strides_0 = const()[name = tensor<string, []>("input_89_strides_0"), val = tensor<int32, [2]>([1, 1])];
            tensor<int32, [2]> input_89_dilations_0 = const()[name = tensor<string, []>("input_89_dilations_0"), val = tensor<int32, [2]>([1, 1])];
            tensor<int32, []> input_89_groups_0 = const()[name = tensor<string, []>("input_89_groups_0"), val = tensor<int32, []>(1)];
            tensor<fp32, [1, 128, 20, 20]> input_89 = conv(bias = model_8_m_0_cv1_conv_bias, dilations = input_89_dilations_0, groups = input_89_groups_0, pad = input_89_pad_0, pad_type = input_89_pad_type_0, strides = input_89_strides_0, weight = model_8_m_0_cv1_conv_weight, x = var_333_1)[name = tensor<string, []>("input_89")];
            tensor<fp32, [1, 128, 20, 20]> input_91 = silu(x = input_89)[name = tensor<string, []>("input_91")];
            tensor<string, []> input_93_pad_type_0 = const()[name = tensor<string, []>("input_93_pad_type_0"), val = tensor<string, []>("custom")];
            tensor<int32, [4]> input_93_pad_0 = const()[name = tensor<string, []>("input_93_pad_0"), val = tensor<int32, [4]>([1, 1, 1, 1])];
            tensor<int32, [2]> input_93_strides_0 = const()[name = tensor<string, []>("input_93_strides_0"), val = tensor<int32, [2]>([1, 1])];
            tensor<int32, [2]> input_93_dilations_0 = const()[name = tensor<string, []>("input_93_dilations_0"), val = tensor<int32, [2]>([1, 1])];
            tensor<int32, []> input_93_groups_0 = const()[name = tensor<string, []>("input_93_groups_0"), val = tensor<int32, []>(1)];
            tensor<fp32, [1, 128, 20, 20]> input_93 = conv(bias = model_8_m_0_cv2_conv_bias, dilations = input_93_dilations_0, groups = input_93_groups_0, pad = input_93_pad_0, pad_type = input_93_pad_type_0, strides = input_93_strides_0, weight = model_8_m_0_cv2_conv_weight, x = input_91)[name = tensor<string, []>("input_93")];
            tensor<fp32, [1, 128, 20, 20]> var_355 = silu(x = input_93)[name = tensor<string, []>("op_355")];
            tensor<fp32, [1, 128, 20, 20]> var_356 = add(x = var_333_1, y = var_355)[name = tensor<string, []>("op_356")];
            tensor<bool, []> input_95_interleave_0 = const()[name = tensor<string, []>("input_95_interleave_0"), val = tensor<bool, []>(false)];
            tensor<fp32, [1, 384, 20, 20]> input_95 = concat(axis = var_318, interleave = input_95_interleave_0, values = (var_333_0, var_333_1, var_356))[name = tensor<string, []>("input_95")];
            tensor<string, []> input_97_pad_type_0 = const()[name = tensor<string, []>("input_97_pad_type_0"), val = tensor<string, []>("valid")];
            tensor<int32, [2]> input_97_strides_0 = const()[name = tensor<string, []>("input_97_strides_0"), val = tensor<int32, [2]>([1, 1])];
            tensor<int32, [4]> input_97_pad_0 = const()[name = tensor<string, []>("input_97_pad_0"), val = tensor<int32, [4]>([0, 0, 0, 0])];
            tensor<int32, [2]> input_97_dilations_0 = const()[name = tensor<string, []>("input_97_dilations_0"), val = tensor<int32, [2]>([1, 1])];
            tensor<int32, []> input_97_groups_0 = const()[name = tensor<string, []>("input_97_groups_0"), val = tensor<int32, []>(1)];
            tensor<fp32, [1, 256, 20, 20]> input_97 = conv(bias = model_8_cv2_conv_bias, dilations = input_97_dilations_0, groups = input_97_groups_0, pad = input_97_pad_0, pad_type = input_97_pad_type_0, strides = input_97_strides_0, weight = model_8_cv2_conv_weight, x = input_95)[name = tensor<string, []>("input_97")];
            tensor<fp32, [1, 256, 20, 20]> input_99 = silu(x = input_97)[name = tensor<string, []>("input_99")];
            tensor<int32, []> var_373 = const()[name = tensor<string, []>("op_373"), val = tensor<int32, []>(1)];
            tensor<string, []> input_101_pad_type_0 = const()[name = tensor<string, []>("input_101_pad_type_0"), val = tensor<string, []>("valid")];
            tensor<int32, [2]> input_101_strides_0 = const()[name = tensor<string, []>("input_101_strides_0"), val = tensor<int32, [2]>([1, 1])];
            tensor<int32, [4]> input_101_pad_0 = const()[name = tensor<string, []>("input_101_pad_0"), val = tensor<int32, [4]>([0, 0, 0, 0])];
            tensor<int32, [2]> input_101_dilations_0 = const()[name = tensor<string, []>("input_101_dilations_0"), val = tensor<int32, [2]>([1, 1])];
            tensor<int32, []> input_101_groups_0 = const()[name = tensor<string, []>("input_101_groups_0"), val = tensor<int32, []>(1)];
            tensor<fp32, [1, 128, 20, 20]> input_101 = conv(bias = model_9_cv1_conv_bias, dilations = input_101_dilations_0, groups = input_101_groups_0, pad = input_101_pad_0, pad_type = input_101_pad_type_0, strides = input_101_strides_0, weight = model_9_cv1_conv_weight, x = input_99)[name = tensor<string, []>("input_101")];
            tensor<fp32, [1, 128, 20, 20]> input_103 = silu(x = input_101)[name = tensor<string, []>("input_103")];
            tensor<int32, [2]> var_385 = const()[name = tensor<string, []>("op_385"), val = tensor<int32, [2]>([5, 5])];
            tensor<int32, [2]> var_386 = const()[name = tensor<string, []>("op_386"), val = tensor<int32, [2]>([1, 1])];
            tensor<string, []> input_105_pad_type_0 = const()[name = tensor<string, []>("input_105_pad_type_0"), val = tensor<string, []>("custom")];
            tensor<int32, [4]> input_105_pad_0 = const()[name = tensor<string, []>("input_105_pad_0"), val = tensor<int32, [4]>([2, 2, 2, 2])];
            tensor<bool, []> input_105_ceil_mode_0 = const()[name = tensor<string, []>("input_105_ceil_mode_0"), val = tensor<bool, []>(false)];
            tensor<fp32, [1, 128, 20, 20]> input_105 = max_pool(ceil_mode = input_105_ceil_mode_0, kernel_sizes = var_385, pad = input_105_pad_0, pad_type = input_105_pad_type_0, strides = var_386, x = input_103)[name = tensor<string, []>("input_105")];
            tensor<int32, [2]> var_390 = const()[name = tensor<string, []>("op_390"), val = tensor<int32, [2]>([5, 5])];
            tensor<int32, [2]> var_391 = const()[name = tensor<string, []>("op_391"), val = tensor<int32, [2]>([1, 1])];
            tensor<string, []> input_107_pad_type_0 = const()[name = tensor<string, []>("input_107_pad_type_0"), val = tensor<string, []>("custom")];
            tensor<int32, [4]> input_107_pad_0 = const()[name = tensor<string, []>("input_107_pad_0"), val = tensor<int32, [4]>([2, 2, 2, 2])];
            tensor<bool, []> input_107_ceil_mode_0 = const()[name = tensor<string, []>("input_107_ceil_mode_0"), val = tensor<bool, []>(false)];
            tensor<fp32, [1, 128, 20, 20]> input_107 = max_pool(ceil_mode = input_107_ceil_mode_0, kernel_sizes = var_390, pad = input_107_pad_0, pad_type = input_107_pad_type_0, strides = var_391, x = input_105)[name = tensor<string, []>("input_107")];
            tensor<int32, [2]> var_395 = const()[name = tensor<string, []>("op_395"), val = tensor<int32, [2]>([5, 5])];
            tensor<int32, [2]> var_396 = const()[name = tensor<string, []>("op_396"), val = tensor<int32, [2]>([1, 1])];
            tensor<string, []> var_399_pad_type_0 = const()[name = tensor<string, []>("op_399_pad_type_0"), val = tensor<string, []>("custom")];
            tensor<int32, [4]> var_399_pad_0 = const()[name = tensor<string, []>("op_399_pad_0"), val = tensor<int32, [4]>([2, 2, 2, 2])];
            tensor<bool, []> var_399_ceil_mode_0 = const()[name = tensor<string, []>("op_399_ceil_mode_0"), val = tensor<bool, []>(false)];
            tensor<fp32, [1, 128, 20, 20]> var_399 = max_pool(ceil_mode = var_399_ceil_mode_0, kernel_sizes = var_395, pad = var_399_pad_0, pad_type = var_399_pad_type_0, strides = var_396, x = input_107)[name = tensor<string, []>("op_399")];
            tensor<bool, []> input_109_interleave_0 = const()[name = tensor<string, []>("input_109_interleave_0"), val = tensor<bool, []>(false)];
            tensor<fp32, [1, 512, 20, 20]> input_109 = concat(axis = var_373, interleave = input_109_interleave_0, values = (input_103, input_105, input_107, var_399))[name = tensor<string, []>("input_109")];
            tensor<string, []> input_111_pad_type_0 = const()[name = tensor<string, []>("input_111_pad_type_0"), val = tensor<string, []>("valid")];
            tensor<int32, [2]> input_111_strides_0 = const()[name = tensor<string, []>("input_111_strides_0"), val = tensor<int32, [2]>([1, 1])];
            tensor<int32, [4]> input_111_pad_0 = const()[name = tensor<string, []>("input_111_pad_0"), val = tensor<int32, [4]>([0, 0, 0, 0])];
            tensor<int32, [2]> input_111_dilations_0 = const()[name = tensor<string, []>("input_111_dilations_0"), val = tensor<int32, [2]>([1, 1])];
            tensor<int32, []> input_111_groups_0 = const()[name = tensor<string, []>("input_111_groups_0"), val = tensor<int32, []>(1)];
            tensor<fp32, [1, 256, 20, 20]> input_111 = conv(bias = model_9_cv2_conv_bias, dilations = input_111_dilations_0, groups = input_111_groups_0, pad = input_111_pad_0, pad_type = input_111_pad_type_0, strides = input_111_strides_0, weight = model_9_cv2_conv_weight, x = input_109)[name = tensor<string, []>("input_111")];
            tensor<fp32, [1, 256, 20, 20]> input_113 = silu(x = input_111)[name = tensor<string, []>("input_113")];
            tensor<fp32, []> var_414_scale_factor_height_0 = const()[name = tensor<string, []>("op_414_scale_factor_height_0"), val = tensor<fp32, []>(0x1p+1)];
            tensor<fp32, []> var_414_scale_factor_width_0 = const()[name = tensor<string, []>("op_414_scale_factor_width_0"), val = tensor<fp32, []>(0x1p+1)];
            tensor<fp32, [1, 256, 40, 40]> var_414 = upsample_nearest_neighbor(scale_factor_height = var_414_scale_factor_height_0, scale_factor_width = var_414_scale_factor_width_0, x = input_113)[name = tensor<string, []>("op_414")];
            tensor<int32, []> var_415 = const()[name = tensor<string, []>("op_415"), val = tensor<int32, []>(1)];
            tensor<bool, []> input_115_interleave_0 = const()[name = tensor<string, []>("input_115_interleave_0"), val = tensor<bool, []>(false)];
            tensor<fp32, [1, 384, 40, 40]> input_115 = concat(axis = var_415, interleave = input_115_interleave_0, values = (var_414, input_79))[name = tensor<string, []>("input_115")];
            tensor<int32, []> var_422 = const()[name = tensor<string, []>("op_422"), val = tensor<int32, []>(1)];
            tensor<string, []> input_117_pad_type_0 = const()[name = tensor<string, []>("input_117_pad_type_0"), val = tensor<string, []>("valid")];
            tensor<int32, [2]> input_117_strides_0 = const()[name = tensor<string, []>("input_117_strides_0"), val = tensor<int32, [2]>([1, 1])];
            tensor<int32, [4]> input_117_pad_0 = const()[name = tensor<string, []>("input_117_pad_0"), val = tensor<int32, [4]>([0, 0, 0, 0])];
            tensor<int32, [2]> input_117_dilations_0 = const()[name = tensor<string, []>("input_117_dilations_0"), val = tensor<int32, [2]>([1, 1])];
            tensor<int32, []> input_117_groups_0 = const()[name = tensor<string, []>("input_117_groups_0"), val = tensor<int32, []>(1)];
            tensor<fp32, [1, 128, 40, 40]> input_117 = conv(bias = model_12_cv1_conv_bias, dilations = input_117_dilations_0, groups = input_117_groups_0, pad = input_117_pad_0, pad_type = input_117_pad_type_0, strides = input_117_strides_0, weight = model_12_cv1_conv_weight, x = input_115)[name = tensor<string, []>("input_117")];
            tensor<fp32, [1, 128, 40, 40]> var_435 = silu(x = input_117)[name = tensor<string, []>("op_435")];
            tensor<int32, [2]> var_436 = const()[name = tensor<string, []>("op_436"), val = tensor<int32, [2]>([64, 64])];
            tensor<int32, []> var_437_axis_0 = const()[name = tensor<string, []>("op_437_axis_0"), val = tensor<int32, []>(1)];
            tensor<fp32, [1, 64, 40, 40]> var_437_0, tensor<fp32, [1, 64, 40, 40]> var_437_1 = split(axis = var_437_axis_0, split_sizes = var_436, x = var_435)[name = tensor<string, []>("op_437")];
            tensor<string, []> input_121_pad_type_0 = const()[name = tensor<string, []>("input_121_pad_type_0"), val = tensor<string, []>("custom")];
            tensor<int32, [4]> input_121_pad_0 = const()[name = tensor<string, []>("input_121_pad_0"), val = tensor<int32, [4]>([1, 1, 1, 1])];
            tensor<int32, [2]> input_121_strides_0 = const()[name = tensor<string, []>("input_121_strides_0"), val = tensor<int32, [2]>([1, 1])];
            tensor<int32, [2]> input_121_dilations_0 = const()[name = tensor<string, []>("input_121_dilations_0"), val = tensor<int32, [2]>([1, 1])];
            tensor<int32, []> input_121_groups_0 = const()[name = tensor<string, []>("input_121_groups_0"), val = tensor<int32, []>(1)];
            tensor<fp32, [1, 64, 40, 40]> input_121 = conv(bias = model_12_m_0_cv1_conv_bias, dilations = input_121_dilations_0, groups = input_121_groups_0, pad = input_121_pad_0, pad_type = input_121_pad_type_0, strides = input_121_strides_0, weight = model_12_m_0_cv1_conv_weight, x = var_437_1)[name = tensor<string, []>("input_121")];
            tensor<fp32, [1, 64, 40, 40]> input_123 = silu(x = input_121)[name = tensor<string, []>("input_123")];
            tensor<string, []> input_125_pad_type_0 = const()[name = tensor<string, []>("input_125_pad_type_0"), val = tensor<string, []>("custom")];
            tensor<int32, [4]> input_125_pad_0 = const()[name = tensor<string, []>("input_125_pad_0"), val = tensor<int32, [4]>([1, 1, 1, 1])];
            tensor<int32, [2]> input_125_strides_0 = const()[name = tensor<string, []>("input_125_strides_0"), val = tensor<int32, [2]>([1, 1])];
            tensor<int32, [2]> input_125_dilations_0 = const()[name = tensor<string, []>("input_125_dilations_0"), val = tensor<int32, [2]>([1, 1])];
            tensor<int32, []> input_125_groups_0 = const()[name = tensor<string, []>("input_125_groups_0"), val = tensor<int32, []>(1)];
            tensor<fp32, [1, 64, 40, 40]> input_125 = conv(bias = model_12_m_0_cv2_conv_bias, dilations = input_125_dilations_0, groups = input_125_groups_0, pad = input_125_pad_0, pad_type = input_125_pad_type_0, strides = input_125_strides_0, weight = model_12_m_0_cv2_conv_weight, x = input_123)[name = tensor<string, []>("input_125")];
            tensor<fp32, [1, 64, 40, 40]> var_459 = silu(x = input_125)[name = tensor<string, []>("op_459")];
            tensor<bool, []> input_127_interleave_0 = const()[name = tensor<string, []>("input_127_interleave_0"), val = tensor<bool, []>(false)];
            tensor<fp32, [1, 192, 40, 40]> input_127 = concat(axis = var_422, interleave = input_127_interleave_0, values = (var_437_0, var_437_1, var_459))[name = tensor<string, []>("input_127")];
            tensor<string, []> input_129_pad_type_0 = const()[name = tensor<string, []>("input_129_pad_type_0"), val = tensor<string, []>("valid")];
            tensor<int32, [2]> input_129_strides_0 = const()[name = tensor<string, []>("input_129_strides_0"), val = tensor<int32, [2]>([1, 1])];
            tensor<int32, [4]> input_129_pad_0 = const()[name = tensor<string, []>("input_129_pad_0"), val = tensor<int32, [4]>([0, 0, 0, 0])];
            tensor<int32, [2]> input_129_dilations_0 = const()[name = tensor<string, []>("input_129_dilations_0"), val = tensor<int32, [2]>([1, 1])];
            tensor<int32, []> input_129_groups_0 = const()[name = tensor<string, []>("input_129_groups_0"), val = tensor<int32, []>(1)];
            tensor<fp32, [1, 128, 40, 40]> input_129 = conv(bias = model_12_cv2_conv_bias, dilations = input_129_dilations_0, groups = input_129_groups_0, pad = input_129_pad_0, pad_type = input_129_pad_type_0, strides = input_129_strides_0, weight = model_12_cv2_conv_weight, x = input_127)[name = tensor<string, []>("input_129")];
            tensor<fp32, [1, 128, 40, 40]> input_131 = silu(x = input_129)[name = tensor<string, []>("input_131")];
            tensor<fp32, []> var_474_scale_factor_height_0 = const()[name = tensor<string, []>("op_474_scale_factor_height_0"), val = tensor<fp32, []>(0x1p+1)];
            tensor<fp32, []> var_474_scale_factor_width_0 = const()[name = tensor<string, []>("op_474_scale_factor_width_0"), val = tensor<fp32, []>(0x1p+1)];
            tensor<fp32, [1, 128, 80, 80]> var_474 = upsample_nearest_neighbor(scale_factor_height = var_474_scale_factor_height_0, scale_factor_width = var_474_scale_factor_width_0, x = input_131)[name = tensor<string, []>("op_474")];
            tensor<int32, []> var_475 = const()[name = tensor<string, []>("op_475"), val = tensor<int32, []>(1)];
            tensor<bool, []> input_133_interleave_0 = const()[name = tensor<string, []>("input_133_interleave_0"), val = tensor<bool, []>(false)];
            tensor<fp32, [1, 192, 80, 80]> input_133 = concat(axis = var_475, interleave = input_133_interleave_0, values = (var_474, input_51))[name = tensor<string, []>("input_133")];
            tensor<int32, []> var_482 = const()[name = tensor<string, []>("op_482"), val = tensor<int32, []>(1)];
            tensor<string, []> input_135_pad_type_0 = const()[name = tensor<string, []>("input_135_pad_type_0"), val = tensor<string, []>("valid")];
            tensor<int32, [2]> input_135_strides_0 = const()[name = tensor<string, []>("input_135_strides_0"), val = tensor<int32, [2]>([1, 1])];
            tensor<int32, [4]> input_135_pad_0 = const()[name = tensor<string, []>("input_135_pad_0"), val = tensor<int32, [4]>([0, 0, 0, 0])];
            tensor<int32, [2]> input_135_dilations_0 = const()[name = tensor<string, []>("input_135_dilations_0"), val = tensor<int32, [2]>([1, 1])];
            tensor<int32, []> input_135_groups_0 = const()[name = tensor<string, []>("input_135_groups_0"), val = tensor<int32, []>(1)];
            tensor<fp32, [1, 64, 80, 80]> input_135 = conv(bias = model_15_cv1_conv_bias, dilations = input_135_dilations_0, groups = input_135_groups_0, pad = input_135_pad_0, pad_type = input_135_pad_type_0, strides = input_135_strides_0, weight = model_15_cv1_conv_weight, x = input_133)[name = tensor<string, []>("input_135")];
            tensor<fp32, [1, 64, 80, 80]> var_495 = silu(x = input_135)[name = tensor<string, []>("op_495")];
            tensor<int32, [2]> var_496 = const()[name = tensor<string, []>("op_496"), val = tensor<int32, [2]>([32, 32])];
            tensor<int32, []> var_497_axis_0 = const()[name = tensor<string, []>("op_497_axis_0"), val = tensor<int32, []>(1)];
            tensor<fp32, [1, 32, 80, 80]> var_497_0, tensor<fp32, [1, 32, 80, 80]> var_497_1 = split(axis = var_497_axis_0, split_sizes = var_496, x = var_495)[name = tensor<string, []>("op_497")];
            tensor<string, []> input_139_pad_type_0 = const()[name = tensor<string, []>("input_139_pad_type_0"), val = tensor<string, []>("custom")];
            tensor<int32, [4]> input_139_pad_0 = const()[name = tensor<string, []>("input_139_pad_0"), val = tensor<int32, [4]>([1, 1, 1, 1])];
            tensor<int32, [2]> input_139_strides_0 = const()[name = tensor<string, []>("input_139_strides_0"), val = tensor<int32, [2]>([1, 1])];
            tensor<int32, [2]> input_139_dilations_0 = const()[name = tensor<string, []>("input_139_dilations_0"), val = tensor<int32, [2]>([1, 1])];
            tensor<int32, []> input_139_groups_0 = const()[name = tensor<string, []>("input_139_groups_0"), val = tensor<int32, []>(1)];
            tensor<fp32, [1, 32, 80, 80]> input_139 = conv(bias = model_15_m_0_cv1_conv_bias, dilations = input_139_dilations_0, groups = input_139_groups_0, pad = input_139_pad_0, pad_type = input_139_pad_type_0, strides = input_139_strides_0, weight = model_15_m_0_cv1_conv_weight, x = var_497_1)[name = tensor<string, []>("input_139")];
            tensor<fp32, [1, 32, 80, 80]> input_141 = silu(x = input_139)[name = tensor<string, []>("input_141")];
            tensor<string, []> input_143_pad_type_0 = const()[name = tensor<string, []>("input_143_pad_type_0"), val = tensor<string, []>("custom")];
            tensor<int32, [4]> input_143_pad_0 = const()[name = tensor<string, []>("input_143_pad_0"), val = tensor<int32, [4]>([1, 1, 1, 1])];
            tensor<int32, [2]> input_143_strides_0 = const()[name = tensor<string, []>("input_143_strides_0"), val = tensor<int32, [2]>([1, 1])];
            tensor<int32, [2]> input_143_dilations_0 = const()[name = tensor<string, []>("input_143_dilations_0"), val = tensor<int32, [2]>([1, 1])];
            tensor<int32, []> input_143_groups_0 = const()[name = tensor<string, []>("input_143_groups_0"), val = tensor<int32, []>(1)];
            tensor<fp32, [1, 32, 80, 80]> input_143 = conv(bias = model_15_m_0_cv2_conv_bias, dilations = input_143_dilations_0, groups = input_143_groups_0, pad = input_143_pad_0, pad_type = input_143_pad_type_0, strides = input_143_strides_0, weight = model_15_m_0_cv2_conv_weight, x = input_141)[name = tensor<string, []>("input_143")];
            tensor<fp32, [1, 32, 80, 80]> var_519 = silu(x = input_143)[name = tensor<string, []>("op_519")];
            tensor<bool, []> input_145_interleave_0 = const()[name = tensor<string, []>("input_145_interleave_0"), val = tensor<bool, []>(false)];
            tensor<fp32, [1, 96, 80, 80]> input_145 = concat(axis = var_482, interleave = input_145_interleave_0, values = (var_497_0, var_497_1, var_519))[name = tensor<string, []>("input_145")];
            tensor<string, []> input_147_pad_type_0 = const()[name = tensor<string, []>("input_147_pad_type_0"), val = tensor<string, []>("valid")];
            tensor<int32, [2]> input_147_strides_0 = const()[name = tensor<string, []>("input_147_strides_0"), val = tensor<int32, [2]>([1, 1])];
            tensor<int32, [4]> input_147_pad_0 = const()[name = tensor<string, []>("input_147_pad_0"), val = tensor<int32, [4]>([0, 0, 0, 0])];
            tensor<int32, [2]> input_147_dilations_0 = const()[name = tensor<string, []>("input_147_dilations_0"), val = tensor<int32, [2]>([1, 1])];
            tensor<int32, []> input_147_groups_0 = const()[name = tensor<string, []>("input_147_groups_0"), val = tensor<int32, []>(1)];
            tensor<fp32, [1, 64, 80, 80]> input_147 = conv(bias = model_15_cv2_conv_bias, dilations = input_147_dilations_0, groups = input_147_groups_0, pad = input_147_pad_0, pad_type = input_147_pad_type_0, strides = input_147_strides_0, weight = model_15_cv2_conv_weight, x = input_145)[name = tensor<string, []>("input_147")];
            tensor<fp32, [1, 64, 80, 80]> input_149 = silu(x = input_147)[name = tensor<string, []>("input_149")];
            tensor<string, []> input_151_pad_type_0 = const()[name = tensor<string, []>("input_151_pad_type_0"), val = tensor<string, []>("custom")];
            tensor<int32, [4]> input_151_pad_0 = const()[name = tensor<string, []>("input_151_pad_0"), val = tensor<int32, [4]>([1, 1, 1, 1])];
            tensor<int32, [2]> input_151_strides_0 = const()[name = tensor<string, []>("input_151_strides_0"), val = tensor<int32, [2]>([2, 2])];
            tensor<int32, [2]> input_151_dilations_0 = const()[name = tensor<string, []>("input_151_dilations_0"), val = tensor<int32, [2]>([1, 1])];
            tensor<int32, []> input_151_groups_0 = const()[name = tensor<string, []>("input_151_groups_0"), val = tensor<int32, []>(1)];
            tensor<fp32, [1, 64, 40, 40]> input_151 = conv(bias = model_16_conv_bias, dilations = input_151_dilations_0, groups = input_151_groups_0, pad = input_151_pad_0, pad_type = input_151_pad_type_0, strides = input_151_strides_0, weight = model_16_conv_weight, x = input_149)[name = tensor<string, []>("input_151")];
            tensor<fp32, [1, 64, 40, 40]> var_544 = silu(x = input_151)[name = tensor<string, []>("op_544")];
            tensor<int32, []> var_545 = const()[name = tensor<string, []>("op_545"), val = tensor<int32, []>(1)];
            tensor<bool, []> input_153_interleave_0 = const()[name = tensor<string, []>("input_153_interleave_0"), val = tensor<bool, []>(false)];
            tensor<fp32, [1, 192, 40, 40]> input_153 = concat(axis = var_545, interleave = input_153_interleave_0, values = (var_544, input_131))[name = tensor<string, []>("input_153")];
            tensor<int32, []> var_552 = const()[name = tensor<string, []>("op_552"), val = tensor<int32, []>(1)];
            tensor<string, []> input_155_pad_type_0 = const()[name = tensor<string, []>("input_155_pad_type_0"), val = tensor<string, []>("valid")];
            tensor<int32, [2]> input_155_strides_0 = const()[name = tensor<string, []>("input_155_strides_0"), val = tensor<int32, [2]>([1, 1])];
            tensor<int32, [4]> input_155_pad_0 = const()[name = tensor<string, []>("input_155_pad_0"), val = tensor<int32, [4]>([0, 0, 0, 0])];
            tensor<int32, [2]> input_155_dilations_0 = const()[name = tensor<string, []>("input_155_dilations_0"), val = tensor<int32, [2]>([1, 1])];
            tensor<int32, []> input_155_groups_0 = const()[name = tensor<string, []>("input_155_groups_0"), val = tensor<int32, []>(1)];
            tensor<fp32, [1, 128, 40, 40]> input_155 = conv(bias = model_18_cv1_conv_bias, dilations = input_155_dilations_0, groups = input_155_groups_0, pad = input_155_pad_0, pad_type = input_155_pad_type_0, strides = input_155_strides_0, weight = model_18_cv1_conv_weight, x = input_153)[name = tensor<string, []>("input_155")];
            tensor<fp32, [1, 128, 40, 40]> var_565 = silu(x = input_155)[name = tensor<string, []>("op_565")];
            tensor<int32, [2]> var_566 = const()[name = tensor<string, []>("op_566"), val = tensor<int32, [2]>([64, 64])];
            tensor<int32, []> var_567_axis_0 = const()[name = tensor<string, []>("op_567_axis_0"), val = tensor<int32, []>(1)];
            tensor<fp32, [1, 64, 40, 40]> var_567_0, tensor<fp32, [1, 64, 40, 40]> var_567_1 = split(axis = var_567_axis_0, split_sizes = var_566, x = var_565)[name = tensor<string, []>("op_567")];
            tensor<string, []> input_159_pad_type_0 = const()[name = tensor<string, []>("input_159_pad_type_0"), val = tensor<string, []>("custom")];
            tensor<int32, [4]> input_159_pad_0 = const()[name = tensor<string, []>("input_159_pad_0"), val = tensor<int32, [4]>([1, 1, 1, 1])];
            tensor<int32, [2]> input_159_strides_0 = const()[name = tensor<string, []>("input_159_strides_0"), val = tensor<int32, [2]>([1, 1])];
            tensor<int32, [2]> input_159_dilations_0 = const()[name = tensor<string, []>("input_159_dilations_0"), val = tensor<int32, [2]>([1, 1])];
            tensor<int32, []> input_159_groups_0 = const()[name = tensor<string, []>("input_159_groups_0"), val = tensor<int32, []>(1)];
            tensor<fp32, [1, 64, 40, 40]> input_159 = conv(bias = model_18_m_0_cv1_conv_bias, dilations = input_159_dilations_0, groups = input_159_groups_0, pad = input_159_pad_0, pad_type = input_159_pad_type_0, strides = input_159_strides_0, weight = model_18_m_0_cv1_conv_weight, x = var_567_1)[name = tensor<string, []>("input_159")];
            tensor<fp32, [1, 64, 40, 40]> input_161 = silu(x = input_159)[name = tensor<string, []>("input_161")];
            tensor<string, []> input_163_pad_type_0 = const()[name = tensor<string, []>("input_163_pad_type_0"), val = tensor<string, []>("custom")];
            tensor<int32, [4]> input_163_pad_0 = const()[name = tensor<string, []>("input_163_pad_0"), val = tensor<int32, [4]>([1, 1, 1, 1])];
            tensor<int32, [2]> input_163_strides_0 = const()[name = tensor<string, []>("input_163_strides_0"), val = tensor<int32, [2]>([1, 1])];
            tensor<int32, [2]> input_163_dilations_0 = const()[name = tensor<string, []>("input_163_dilations_0"), val = tensor<int32, [2]>([1, 1])];
            tensor<int32, []> input_163_groups_0 = const()[name = tensor<string, []>("input_163_groups_0"), val = tensor<int32, []>(1)];
            tensor<fp32, [1, 64, 40, 40]> input_163 = conv(bias = model_18_m_0_cv2_conv_bias, dilations = input_163_dilations_0, groups = input_163_groups_0, pad = input_163_pad_0, pad_type = input_163_pad_type_0, strides = input_163_strides_0, weight = model_18_m_0_cv2_conv_weight, x = input_161)[name = tensor<string, []>("input_163")];
            tensor<fp32, [1, 64, 40, 40]> var_589 = silu(x = input_163)[name = tensor<string, []>("op_589")];
            tensor<bool, []> input_165_interleave_0 = const()[name = tensor<string, []>("input_165_interleave_0"), val = tensor<bool, []>(false)];
            tensor<fp32, [1, 192, 40, 40]> input_165 = concat(axis = var_552, interleave = input_165_interleave_0, values = (var_567_0, var_567_1, var_589))[name = tensor<string, []>("input_165")];
            tensor<string, []> input_167_pad_type_0 = const()[name = tensor<string, []>("input_167_pad_type_0"), val = tensor<string, []>("valid")];
            tensor<int32, [2]> input_167_strides_0 = const()[name = tensor<string, []>("input_167_strides_0"), val = tensor<int32, [2]>([1, 1])];
            tensor<int32, [4]> input_167_pad_0 = const()[name = tensor<string, []>("input_167_pad_0"), val = tensor<int32, [4]>([0, 0, 0, 0])];
            tensor<int32, [2]> input_167_dilations_0 = const()[name = tensor<string, []>("input_167_dilations_0"), val = tensor<int32, [2]>([1, 1])];
            tensor<int32, []> input_167_groups_0 = const()[name = tensor<string, []>("input_167_groups_0"), val = tensor<int32, []>(1)];
            tensor<fp32, [1, 128, 40, 40]> input_167 = conv(bias = model_18_cv2_conv_bias, dilations = input_167_dilations_0, groups = input_167_groups_0, pad = input_167_pad_0, pad_type = input_167_pad_type_0, strides = input_167_strides_0, weight = model_18_cv2_conv_weight, x = input_165)[name = tensor<string, []>("input_167")];
            tensor<fp32, [1, 128, 40, 40]> input_169 = silu(x = input_167)[name = tensor<string, []>("input_169")];
            tensor<string, []> input_171_pad_type_0 = const()[name = tensor<string, []>("input_171_pad_type_0"), val = tensor<string, []>("custom")];
            tensor<int32, [4]> input_171_pad_0 = const()[name = tensor<string, []>("input_171_pad_0"), val = tensor<int32, [4]>([1, 1, 1, 1])];
            tensor<int32, [2]> input_171_strides_0 = const()[name = tensor<string, []>("input_171_strides_0"), val = tensor<int32, [2]>([2, 2])];
            tensor<int32, [2]> input_171_dilations_0 = const()[name = tensor<string, []>("input_171_dilations_0"), val = tensor<int32, [2]>([1, 1])];
            tensor<int32, []> input_171_groups_0 = const()[name = tensor<string, []>("input_171_groups_0"), val = tensor<int32, []>(1)];
            tensor<fp32, [1, 128, 20, 20]> input_171 = conv(bias = model_19_conv_bias, dilations = input_171_dilations_0, groups = input_171_groups_0, pad = input_171_pad_0, pad_type = input_171_pad_type_0, strides = input_171_strides_0, weight = model_19_conv_weight, x = input_169)[name = tensor<string, []>("input_171")];
            tensor<fp32, [1, 128, 20, 20]> var_614 = silu(x = input_171)[name = tensor<string, []>("op_614")];
            tensor<int32, []> var_615 = const()[name = tensor<string, []>("op_615"), val = tensor<int32, []>(1)];
            tensor<bool, []> input_173_interleave_0 = const()[name = tensor<string, []>("input_173_interleave_0"), val = tensor<bool, []>(false)];
            tensor<fp32, [1, 384, 20, 20]> input_173 = concat(axis = var_615, interleave = input_173_interleave_0, values = (var_614, input_113))[name = tensor<string, []>("input_173")];
            tensor<int32, []> var_622 = const()[name = tensor<string, []>("op_622"), val = tensor<int32, []>(1)];
            tensor<string, []> input_175_pad_type_0 = const()[name = tensor<string, []>("input_175_pad_type_0"), val = tensor<string, []>("valid")];
            tensor<int32, [2]> input_175_strides_0 = const()[name = tensor<string, []>("input_175_strides_0"), val = tensor<int32, [2]>([1, 1])];
            tensor<int32, [4]> input_175_pad_0 = const()[name = tensor<string, []>("input_175_pad_0"), val = tensor<int32, [4]>([0, 0, 0, 0])];
            tensor<int32, [2]> input_175_dilations_0 = const()[name = tensor<string, []>("input_175_dilations_0"), val = tensor<int32, [2]>([1, 1])];
            tensor<int32, []> input_175_groups_0 = const()[name = tensor<string, []>("input_175_groups_0"), val = tensor<int32, []>(1)];
            tensor<fp32, [1, 256, 20, 20]> input_175 = conv(bias = model_21_cv1_conv_bias, dilations = input_175_dilations_0, groups = input_175_groups_0, pad = input_175_pad_0, pad_type = input_175_pad_type_0, strides = input_175_strides_0, weight = model_21_cv1_conv_weight, x = input_173)[name = tensor<string, []>("input_175")];
            tensor<fp32, [1, 256, 20, 20]> var_635 = silu(x = input_175)[name = tensor<string, []>("op_635")];
            tensor<int32, [2]> var_636 = const()[name = tensor<string, []>("op_636"), val = tensor<int32, [2]>([128, 128])];
            tensor<int32, []> var_637_axis_0 = const()[name = tensor<string, []>("op_637_axis_0"), val = tensor<int32, []>(1)];
            tensor<fp32, [1, 128, 20, 20]> var_637_0, tensor<fp32, [1, 128, 20, 20]> var_637_1 = split(axis = var_637_axis_0, split_sizes = var_636, x = var_635)[name = tensor<string, []>("op_637")];
            tensor<string, []> input_179_pad_type_0 = const()[name = tensor<string, []>("input_179_pad_type_0"), val = tensor<string, []>("custom")];
            tensor<int32, [4]> input_179_pad_0 = const()[name = tensor<string, []>("input_179_pad_0"), val = tensor<int32, [4]>([1, 1, 1, 1])];
            tensor<int32, [2]> input_179_strides_0 = const()[name = tensor<string, []>("input_179_strides_0"), val = tensor<int32, [2]>([1, 1])];
            tensor<int32, [2]> input_179_dilations_0 = const()[name = tensor<string, []>("input_179_dilations_0"), val = tensor<int32, [2]>([1, 1])];
            tensor<int32, []> input_179_groups_0 = const()[name = tensor<string, []>("input_179_groups_0"), val = tensor<int32, []>(1)];
            tensor<fp32, [1, 128, 20, 20]> input_179 = conv(bias = model_21_m_0_cv1_conv_bias, dilations = input_179_dilations_0, groups = input_179_groups_0, pad = input_179_pad_0, pad_type = input_179_pad_type_0, strides = input_179_strides_0, weight = model_21_m_0_cv1_conv_weight, x = var_637_1)[name = tensor<string, []>("input_179")];
            tensor<fp32, [1, 128, 20, 20]> input_181 = silu(x = input_179)[name = tensor<string, []>("input_181")];
            tensor<string, []> input_183_pad_type_0 = const()[name = tensor<string, []>("input_183_pad_type_0"), val = tensor<string, []>("custom")];
            tensor<int32, [4]> input_183_pad_0 = const()[name = tensor<string, []>("input_183_pad_0"), val = tensor<int32, [4]>([1, 1, 1, 1])];
            tensor<int32, [2]> input_183_strides_0 = const()[name = tensor<string, []>("input_183_strides_0"), val = tensor<int32, [2]>([1, 1])];
            tensor<int32, [2]> input_183_dilations_0 = const()[name = tensor<string, []>("input_183_dilations_0"), val = tensor<int32, [2]>([1, 1])];
            tensor<int32, []> input_183_groups_0 = const()[name = tensor<string, []>("input_183_groups_0"), val = tensor<int32, []>(1)];
            tensor<fp32, [1, 128, 20, 20]> input_183 = conv(bias = model_21_m_0_cv2_conv_bias, dilations = input_183_dilations_0, groups = input_183_groups_0, pad = input_183_pad_0, pad_type = input_183_pad_type_0, strides = input_183_strides_0, weight = model_21_m_0_cv2_conv_weight, x = input_181)[name = tensor<string, []>("input_183")];
            tensor<fp32, [1, 128, 20, 20]> var_659 = silu(x = input_183)[name = tensor<string, []>("op_659")];
            tensor<bool, []> input_185_interleave_0 = const()[name = tensor<string, []>("input_185_interleave_0"), val = tensor<bool, []>(false)];
            tensor<fp32, [1, 384, 20, 20]> input_185 = concat(axis = var_622, interleave = input_185_interleave_0, values = (var_637_0, var_637_1, var_659))[name = tensor<string, []>("input_185")];
            tensor<string, []> input_187_pad_type_0 = const()[name = tensor<string, []>("input_187_pad_type_0"), val = tensor<string, []>("valid")];
            tensor<int32, [2]> input_187_strides_0 = const()[name = tensor<string, []>("input_187_strides_0"), val = tensor<int32, [2]>([1, 1])];
            tensor<int32, [4]> input_187_pad_0 = const()[name = tensor<string, []>("input_187_pad_0"), val = tensor<int32, [4]>([0, 0, 0, 0])];
            tensor<int32, [2]> input_187_dilations_0 = const()[name = tensor<string, []>("input_187_dilations_0"), val = tensor<int32, [2]>([1, 1])];
            tensor<int32, []> input_187_groups_0 = const()[name = tensor<string, []>("input_187_groups_0"), val = tensor<int32, []>(1)];
            tensor<fp32, [1, 256, 20, 20]> input_187 = conv(bias = model_21_cv2_conv_bias, dilations = input_187_dilations_0, groups = input_187_groups_0, pad = input_187_pad_0, pad_type = input_187_pad_type_0, strides = input_187_strides_0, weight = model_21_cv2_conv_weight, x = input_185)[name = tensor<string, []>("input_187")];
            tensor<fp32, [1, 256, 20, 20]> input_205 = silu(x = input_187)[name = tensor<string, []>("input_205")];
            tensor<fp32, [1, 8400]> var_671 = const()[name = tensor<string, []>("op_671"), val = tensor<fp32, [1, 8400]>(BLOBFILE(path = tensor<string, []>("@model_path/weights/weight.bin"), offset = tensor<uint64, []>(12615808)))];
            tensor<int32, []> var_678 = const()[name = tensor<string, []>("op_678"), val = tensor<int32, []>(-1)];
            tensor<int32, []> var_680 = const()[name = tensor<string, []>("op_680"), val = tensor<int32, []>(1)];
            tensor<string, []> input_189_pad_type_0 = const()[name = tensor<string, []>("input_189_pad_type_0"), val = tensor<string, []>("custom")];
            tensor<int32, [4]> input_189_pad_0 = const()[name = tensor<string, []>("input_189_pad_0"), val = tensor<int32, [4]>([1, 1, 1, 1])];
            tensor<int32, [2]> input_189_strides_0 = const()[name = tensor<string, []>("input_189_strides_0"), val = tensor<int32, [2]>([1, 1])];
            tensor<int32, [2]> input_189_dilations_0 = const()[name = tensor<string, []>("input_189_dilations_0"), val = tensor<int32, [2]>([1, 1])];
            tensor<int32, []> input_189_groups_0 = const()[name = tensor<string, []>("input_189_groups_0"), val = tensor<int32, []>(1)];
            tensor<fp32, [1, 64, 80, 80]> input_189 = conv(bias = model_22_cv2_0_0_conv_bias, dilations = input_189_dilations_0, groups = input_189_groups_0, pad = input_189_pad_0, pad_type = input_189_pad_type_0, strides = input_189_strides_0, weight = model_22_cv2_0_0_conv_weight, x = input_149)[name = tensor<string, []>("input_189")];
            tensor<fp32, [1, 64, 80, 80]> input_191 = silu(x = input_189)[name = tensor<string, []>("input_191")];
            tensor<string, []> input_193_pad_type_0 = const()[name = tensor<string, []>("input_193_pad_type_0"), val = tensor<string, []>("custom")];
            tensor<int32, [4]> input_193_pad_0 = const()[name = tensor<string, []>("input_193_pad_0"), val = tensor<int32, [4]>([1, 1, 1, 1])];
            tensor<int32, [2]> input_193_strides_0 = const()[name = tensor<string, []>("input_193_strides_0"), val = tensor<int32, [2]>([1, 1])];
            tensor<int32, [2]> input_193_dilations_0 = const()[name = tensor<string, []>("input_193_dilations_0"), val = tensor<int32, [2]>([1, 1])];
            tensor<int32, []> input_193_groups_0 = const()[name = tensor<string, []>("input_193_groups_0"), val = tensor<int32, []>(1)];
            tensor<fp32, [1, 64, 80, 80]> input_193 = conv(bias = model_22_cv2_0_1_conv_bias, dilations = input_193_dilations_0, groups = input_193_groups_0, pad = input_193_pad_0, pad_type = input_193_pad_type_0, strides = input_193_strides_0, weight = model_22_cv2_0_1_conv_weight, x = input_191)[name = tensor<string, []>("input_193")];
            tensor<fp32, [1, 64, 80, 80]> input_195 = silu(x = input_193)[name = tensor<string, []>("input_195")];
            tensor<string, []> var_725_pad_type_0 = const()[name = tensor<string, []>("op_725_pad_type_0"), val = tensor<string, []>("valid")];
            tensor<int32, [2]> var_725_strides_0 = const()[name = tensor<string, []>("op_725_strides_0"), val = tensor<int32, [2]>([1, 1])];
            tensor<int32, [4]> var_725_pad_0 = const()[name = tensor<string, []>("op_725_pad_0"), val = tensor<int32, [4]>([0, 0, 0, 0])];
            tensor<int32, [2]> var_725_dilations_0 = const()[name = tensor<string, []>("op_725_dilations_0"), val = tensor<int32, [2]>([1, 1])];
            tensor<int32, []> var_725_groups_0 = const()[name = tensor<string, []>("op_725_groups_0"), val = tensor<int32, []>(1)];
            tensor<fp32, [1, 64, 80, 80]> var_725 = conv(bias = model_22_cv2_0_2_bias, dilations = var_725_dilations_0, groups = var_725_groups_0, pad = var_725_pad_0, pad_type = var_725_pad_type_0, strides = var_725_strides_0, weight = model_22_cv2_0_2_weight, x = input_195)[name = tensor<string, []>("op_725")];
            tensor<int32, [3]> var_726 = const()[name = tensor<string, []>("op_726"), val = tensor<int32, [3]>([1, 64, -1])];
            tensor<fp32, [1, 64, 6400]> var_727 = reshape(shape = var_726, x = var_725)[name = tensor<string, []>("op_727")];
            tensor<string, []> input_197_pad_type_0 = const()[name = tensor<string, []>("input_197_pad_type_0"), val = tensor<string, []>("custom")];
            tensor<int32, [4]> input_197_pad_0 = const()[name = tensor<string, []>("input_197_pad_0"), val = tensor<int32, [4]>([1, 1, 1, 1])];
            tensor<int32, [2]> input_197_strides_0 = const()[name = tensor<string, []>("input_197_strides_0"), val = tensor<int32, [2]>([1, 1])];
            tensor<int32, [2]> input_197_dilations_0 = const()[name = tensor<string, []>("input_197_dilations_0"), val = tensor<int32, [2]>([1, 1])];
            tensor<int32, []> input_197_groups_0 = const()[name = tensor<string, []>("input_197_groups_0"), val = tensor<int32, []>(1)];
            tensor<fp32, [1, 64, 40, 40]> input_197 = conv(bias = model_22_cv2_1_0_conv_bias, dilations = input_197_dilations_0, groups = input_197_groups_0, pad = input_197_pad_0, pad_type = input_197_pad_type_0, strides = input_197_strides_0, weight = model_22_cv2_1_0_conv_weight, x = input_169)[name = tensor<string, []>("input_197")];
            tensor<fp32, [1, 64, 40, 40]> input_199 = silu(x = input_197)[name = tensor<string, []>("input_199")];
            tensor<string, []> input_201_pad_type_0 = const()[name = tensor<string, []>("input_201_pad_type_0"), val = tensor<string, []>("custom")];
            tensor<int32, [4]> input_201_pad_0 = const()[name = tensor<string, []>("input_201_pad_0"), val = tensor<int32, [4]>([1, 1, 1, 1])];
            tensor<int32, [2]> input_201_strides_0 = const()[name = tensor<string, []>("input_201_strides_0"), val = tensor<int32, [2]>([1, 1])];
            tensor<int32, [2]> input_201_dilations_0 = const()[name = tensor<string, []>("input_201_dilations_0"), val = tensor<int32, [2]>([1, 1])];
            tensor<int32, []> input_201_groups_0 = const()[name = tensor<string, []>("input_201_groups_0"), val = tensor<int32, []>(1)];
            tensor<fp32, [1, 64, 40, 40]> input_201 = conv(bias = model_22_cv2_1_1_conv_bias, dilations = input_201_dilations_0, groups = input_201_groups_0, pad = input_201_pad_0, pad_type = input_201_pad_type_0, strides = input_201_strides_0, weight = model_22_cv2_1_1_conv_weight, x = input_199)[name = tensor<string, []>("input_201")];
            tensor<fp32, [1, 64, 40, 40]> input_203 = silu(x = input_201)[name = tensor<string, []>("input_203")];
            tensor<string, []> var_755_pad_type_0 = const()[name = tensor<string, []>("op_755_pad_type_0"), val = tensor<string, []>("valid")];
            tensor<int32, [2]> var_755_strides_0 = const()[name = tensor<string, []>("op_755_strides_0"), val = tensor<int32, [2]>([1, 1])];
            tensor<int32, [4]> var_755_pad_0 = const()[name = tensor<string, []>("op_755_pad_0"), val = tensor<int32, [4]>([0, 0, 0, 0])];
            tensor<int32, [2]> var_755_dilations_0 = const()[name = tensor<string, []>("op_755_dilations_0"), val = tensor<int32, [2]>([1, 1])];
            tensor<int32, []> var_755_groups_0 = const()[name = tensor<string, []>("op_755_groups_0"), val = tensor<int32, []>(1)];
            tensor<fp32, [1, 64, 40, 40]> var_755 = conv(bias = model_22_cv2_1_2_bias, dilations = var_755_dilations_0, groups = var_755_groups_0, pad = var_755_pad_0, pad_type = var_755_pad_type_0, strides = var_755_strides_0, weight = model_22_cv2_1_2_weight, x = input_203)[name = tensor<string, []>("op_755")];
            tensor<int32, [3]> var_756 = const()[name = tensor<string, []>("op_756"), val = tensor<int32, [3]>([1, 64, -1])];
            tensor<fp32, [1, 64, 1600]> var_757 = reshape(shape = var_756, x = var_755)[name = tensor<string, []>("op_757")];
            tensor<string, []> input_207_pad_type_0 = const()[name = tensor<string, []>("input_207_pad_type_0"), val = tensor<string, []>("custom")];
            tensor<int32, [4]> input_207_pad_0 = const()[name = tensor<string, []>("input_207_pad_0"), val = tensor<int32, [4]>([1, 1, 1, 1])];
            tensor<int32, [2]> input_207_strides_0 = const()[name = tensor<string, []>("input_207_strides_0"), val = tensor<int32, [2]>([1, 1])];
            tensor<int32, [2]> input_207_dilations_0 = const()[name = tensor<string, []>("input_207_dilations_0"), val = tensor<int32, [2]>([1, 1])];
            tensor<int32, []> input_207_groups_0 = const()[name = tensor<string, []>("input_207_groups_0"), val = tensor<int32, []>(1)];
            tensor<fp32, [1, 64, 20, 20]> input_207 = conv(bias = model_22_cv2_2_0_conv_bias, dilations = input_207_dilations_0, groups = input_207_groups_0, pad = input_207_pad_0, pad_type = input_207_pad_type_0, strides = input_207_strides_0, weight = model_22_cv2_2_0_conv_weight, x = input_205)[name = tensor<string, []>("input_207")];
            tensor<fp32, [1, 64, 20, 20]> input_209 = silu(x = input_207)[name = tensor<string, []>("input_209")];
            tensor<string, []> input_211_pad_type_0 = const()[name = tensor<string, []>("input_211_pad_type_0"), val = tensor<string, []>("custom")];
            tensor<int32, [4]> input_211_pad_0 = const()[name = tensor<string, []>("input_211_pad_0"), val = tensor<int32, [4]>([1, 1, 1, 1])];
            tensor<int32, [2]> input_211_strides_0 = const()[name = tensor<string, []>("input_211_strides_0"), val = tensor<int32, [2]>([1, 1])];
            tensor<int32, [2]> input_211_dilations_0 = const()[name = tensor<string, []>("input_211_dilations_0"), val = tensor<int32, [2]>([1, 1])];
            tensor<int32, []> input_211_groups_0 = const()[name = tensor<string, []>("input_211_groups_0"), val = tensor<int32, []>(1)];
            tensor<fp32, [1, 64, 20, 20]> input_211 = conv(bias = model_22_cv2_2_1_conv_bias, dilations = input_211_dilations_0, groups = input_211_groups_0, pad = input_211_pad_0, pad_type = input_211_pad_type_0, strides = input_211_strides_0, weight = model_22_cv2_2_1_conv_weight, x = input_209)[name = tensor<string, []>("input_211")];
            tensor<fp32, [1, 64, 20, 20]> input_213 = silu(x = input_211)[name = tensor<string, []>("input_213")];
            tensor<string, []> var_785_pad_type_0 = const()[name = tensor<string, []>("op_785_pad_type_0"), val = tensor<string, []>("valid")];
            tensor<int32, [2]> var_785_strides_0 = const()[name = tensor<string, []>("op_785_strides_0"), val = tensor<int32, [2]>([1, 1])];
            tensor<int32, [4]> var_785_pad_0 = const()[name = tensor<string, []>("op_785_pad_0"), val = tensor<int32, [4]>([0, 0, 0, 0])];
            tensor<int32, [2]> var_785_dilations_0 = const()[name = tensor<string, []>("op_785_dilations_0"), val = tensor<int32, [2]>([1, 1])];
            tensor<int32, []> var_785_groups_0 = const()[name = tensor<string, []>("op_785_groups_0"), val = tensor<int32, []>(1)];
            tensor<fp32, [1, 64, 20, 20]> var_785 = conv(bias = model_22_cv2_2_2_bias, dilations = var_785_dilations_0, groups = var_785_groups_0, pad = var_785_pad_0, pad_type = var_785_pad_type_0, strides = var_785_strides_0, weight = model_22_cv2_2_2_weight, x = input_213)[name = tensor<string, []>("op_785")];
            tensor<int32, [3]> var_786 = const()[name = tensor<string, []>("op_786"), val = tensor<int32, [3]>([1, 64, -1])];
            tensor<fp32, [1, 64, 400]> var_787 = reshape(shape = var_786, x = var_785)[name = tensor<string, []>("op_787")];
            tensor<bool, []> x_interleave_0 = const()[name = tensor<string, []>("x_interleave_0"), val = tensor<bool, []>(false)];
            tensor<fp32, [1, 64, 8400]> x = concat(axis = var_678, interleave = x_interleave_0, values = (var_727, var_757, var_787))[name = tensor<string, []>("x")];
            tensor<string, []> input_215_pad_type_0 = const()[name = tensor<string, []>("input_215_pad_type_0"), val = tensor<string, []>("custom")];
            tensor<int32, [4]> input_215_pad_0 = const()[name = tensor<string, []>("input_215_pad_0"), val = tensor<int32, [4]>([1, 1, 1, 1])];
            tensor<int32, [2]> input_215_strides_0 = const()[name = tensor<string, []>("input_215_strides_0"), val = tensor<int32, [2]>([1, 1])];
            tensor<int32, [2]> input_215_dilations_0 = const()[name = tensor<string, []>("input_215_dilations_0"), val = tensor<int32, [2]>([1, 1])];
            tensor<int32, []> input_215_groups_0 = const()[name = tensor<string, []>("input_215_groups_0"), val = tensor<int32, []>(1)];
            tensor<fp32, [1, 80, 80, 80]> input_215 = conv(bias = model_22_cv3_0_0_conv_bias, dilations = input_215_dilations_0, groups = input_215_groups_0, pad = input_215_pad_0, pad_type = input_215_pad_type_0, strides = input_215_strides_0, weight = model_22_cv3_0_0_conv_weight, x = input_149)[name = tensor<string, []>("input_215")];
            tensor<fp32, [1, 80, 80, 80]> input_217 = silu(x = input_215)[name = tensor<string, []>("input_217")];
            tensor<string, []> input_219_pad_type_0 = const()[name = tensor<string, []>("input_219_pad_type_0"), val = tensor<string, []>("custom")];
            tensor<int32, [4]> input_219_pad_0 = const()[name = tensor<string, []>("input_219_pad_0"), val = tensor<int32, [4]>([1, 1, 1, 1])];
            tensor<int32, [2]> input_219_strides_0 = const()[name = tensor<string, []>("input_219_strides_0"), val = tensor<int32, [2]>([1, 1])];
            tensor<int32, [2]> input_219_dilations_0 = const()[name = tensor<string, []>("input_219_dilations_0"), val = tensor<int32, [2]>([1, 1])];
            tensor<int32, []> input_219_groups_0 = const()[name = tensor<string, []>("input_219_groups_0"), val = tensor<int32, []>(1)];
            tensor<fp32, [1, 80, 80, 80]> input_219 = conv(bias = model_22_cv3_0_1_conv_bias, dilations = input_219_dilations_0, groups = input_219_groups_0, pad = input_219_pad_0, pad_type = input_219_pad_type_0, strides = input_219_strides_0, weight = model_22_cv3_0_1_conv_weight, x = input_217)[name = tensor<string, []>("input_219")];
            tensor<fp32, [1, 80, 80, 80]> input_221 = silu(x = input_219)[name = tensor<string, []>("input_221")];
            tensor<string, []> var_817_pad_type_0 = const()[name = tensor<string, []>("op_817_pad_type_0"), val = tensor<string, []>("valid")];
            tensor<int32, [2]> var_817_strides_0 = const()[name = tensor<string, []>("op_817_strides_0"), val = tensor<int32, [2]>([1, 1])];
            tensor<int32, [4]> var_817_pad_0 = const()[name = tensor<string, []>("op_817_pad_0"), val = tensor<int32, [4]>([0, 0, 0, 0])];
            tensor<int32, [2]> var_817_dilations_0 = const()[name = tensor<string, []>("op_817_dilations_0"), val = tensor<int32, [2]>([1, 1])];
            tensor<int32, []> var_817_groups_0 = const()[name = tensor<string, []>("op_817_groups_0"), val = tensor<int32, []>(1)];
            tensor<fp32, [1, 80, 80, 80]> var_817 = conv(bias = model_22_cv3_0_2_bias, dilations = var_817_dilations_0, groups = var_817_groups_0, pad = var_817_pad_0, pad_type = var_817_pad_type_0, strides = var_817_strides_0, weight = model_22_cv3_0_2_weight, x = input_221)[name = tensor<string, []>("op_817")];
            tensor<int32, [3]> var_818 = const()[name = tensor<string, []>("op_818"), val = tensor<int32, [3]>([1, 80, -1])];
            tensor<fp32, [1, 80, 6400]> var_819 = reshape(shape = var_818, x = var_817)[name = tensor<string, []>("op_819")];
            tensor<string, []> input_223_pad_type_0 = const()[name = tensor<string, []>("input_223_pad_type_0"), val = tensor<string, []>("custom")];
            tensor<int32, [4]> input_223_pad_0 = const()[name = tensor<string, []>("input_223_pad_0"), val = tensor<int32, [4]>([1, 1, 1, 1])];
            tensor<int32, [2]> input_223_strides_0 = const()[name = tensor<string, []>("input_223_strides_0"), val = tensor<int32, [2]>([1, 1])];
            tensor<int32, [2]> input_223_dilations_0 = const()[name = tensor<string, []>("input_223_dilations_0"), val = tensor<int32, [2]>([1, 1])];
            tensor<int32, []> input_223_groups_0 = const()[name = tensor<string, []>("input_223_groups_0"), val = tensor<int32, []>(1)];
            tensor<fp32, [1, 80, 40, 40]> input_223 = conv(bias = model_22_cv3_1_0_conv_bias, dilations = input_223_dilations_0, groups = input_223_groups_0, pad = input_223_pad_0, pad_type = input_223_pad_type_0, strides = input_223_strides_0, weight = model_22_cv3_1_0_conv_weight, x = input_169)[name = tensor<string, []>("input_223")];
            tensor<fp32, [1, 80, 40, 40]> input_225 = silu(x = input_223)[name = tensor<string, []>("input_225")];
            tensor<string, []> input_227_pad_type_0 = const()[name = tensor<string, []>("input_227_pad_type_0"), val = tensor<string, []>("custom")];
            tensor<int32, [4]> input_227_pad_0 = const()[name = tensor<string, []>("input_227_pad_0"), val = tensor<int32, [4]>([1, 1, 1, 1])];
            tensor<int32, [2]> input_227_strides_0 = const()[name = tensor<string, []>("input_227_strides_0"), val = tensor<int32, [2]>([1, 1])];
            tensor<int32, [2]> input_227_dilations_0 = const()[name = tensor<string, []>("input_227_dilations_0"), val = tensor<int32, [2]>([1, 1])];
            tensor<int32, []> input_227_groups_0 = const()[name = tensor<string, []>("input_227_groups_0"), val = tensor<int32, []>(1)];
            tensor<fp32, [1, 80, 40, 40]> input_227 = conv(bias = model_22_cv3_1_1_conv_bias, dilations = input_227_dilations_0, groups = input_227_groups_0, pad = input_227_pad_0, pad_type = input_227_pad_type_0, strides = input_227_strides_0, weight = model_22_cv3_1_1_conv_weight, x = input_225)[name = tensor<string, []>("input_227")];
            tensor<fp32, [1, 80, 40, 40]> input_229 = silu(x = input_227)[name = tensor<string, []>("input_229")];
            tensor<string, []> var_847_pad_type_0 = const()[name = tensor<string, []>("op_847_pad_type_0"), val = tensor<string, []>("valid")];
            tensor<int32, [2]> var_847_strides_0 = const()[name = tensor<string, []>("op_847_strides_0"), val = tensor<int32, [2]>([1, 1])];
            tensor<int32, [4]> var_847_pad_0 = const()[name = tensor<string, []>("op_847_pad_0"), val = tensor<int32, [4]>([0, 0, 0, 0])];
            tensor<int32, [2]> var_847_dilations_0 = const()[name = tensor<string, []>("op_847_dilations_0"), val = tensor<int32, [2]>([1, 1])];
            tensor<int32, []> var_847_groups_0 = const()[name = tensor<string, []>("op_847_groups_0"), val = tensor<int32, []>(1)];
            tensor<fp32, [1, 80, 40, 40]> var_847 = conv(bias = model_22_cv3_1_2_bias, dilations = var_847_dilations_0, groups = var_847_groups_0, pad = var_847_pad_0, pad_type = var_847_pad_type_0, strides = var_847_strides_0, weight = model_22_cv3_1_2_weight, x = input_229)[name = tensor<string, []>("op_847")];
            tensor<int32, [3]> var_848 = const()[name = tensor<string, []>("op_848"), val = tensor<int32, [3]>([1, 80, -1])];
            tensor<fp32, [1, 80, 1600]> var_849 = reshape(shape = var_848, x = var_847)[name = tensor<string, []>("op_849")];
            tensor<string, []> input_231_pad_type_0 = const()[name = tensor<string, []>("input_231_pad_type_0"), val = tensor<string, []>("custom")];
            tensor<int32, [4]> input_231_pad_0 = const()[name = tensor<string, []>("input_231_pad_0"), val = tensor<int32, [4]>([1, 1, 1, 1])];
            tensor<int32, [2]> input_231_strides_0 = const()[name = tensor<string, []>("input_231_strides_0"), val = tensor<int32, [2]>([1, 1])];
            tensor<int32, [2]> input_231_dilations_0 = const()[name = tensor<string, []>("input_231_dilations_0"), val = tensor<int32, [2]>([1, 1])];
            tensor<int32, []> input_231_groups_0 = const()[name = tensor<string, []>("input_231_groups_0"), val = tensor<int32, []>(1)];
            tensor<fp32, [1, 80, 20, 20]> input_231 = conv(bias = model_22_cv3_2_0_conv_bias, dilations = input_231_dilations_0, groups = input_231_groups_0, pad = input_231_pad_0, pad_type = input_231_pad_type_0, strides = input_231_strides_0, weight = model_22_cv3_2_0_conv_weight, x = input_205)[name = tensor<string, []>("input_231")];
            tensor<fp32, [1, 80, 20, 20]> input_233 = silu(x = input_231)[name = tensor<string, []>("input_233")];
            tensor<string, []> input_235_pad_type_0 = const()[name = tensor<string, []>("input_235_pad_type_0"), val = tensor<string, []>("custom")];
            tensor<int32, [4]> input_235_pad_0 = const()[name = tensor<string, []>("input_235_pad_0"), val = tensor<int32, [4]>([1, 1, 1, 1])];
            tensor<int32, [2]> input_235_strides_0 = const()[name = tensor<string, []>("input_235_strides_0"), val = tensor<int32, [2]>([1, 1])];
            tensor<int32, [2]> input_235_dilations_0 = const()[name = tensor<string, []>("input_235_dilations_0"), val = tensor<int32, [2]>([1, 1])];
            tensor<int32, []> input_235_groups_0 = const()[name = tensor<string, []>("input_235_groups_0"), val = tensor<int32, []>(1)];
            tensor<fp32, [1, 80, 20, 20]> input_235 = conv(bias = model_22_cv3_2_1_conv_bias, dilations = input_235_dilations_0, groups = input_235_groups_0, pad = input_235_pad_0, pad_type = input_235_pad_type_0, strides = input_235_strides_0, weight = model_22_cv3_2_1_conv_weight, x = input_233)[name = tensor<string, []>("input_235")];
            tensor<fp32, [1, 80, 20, 20]> input_237 = silu(x = input_235)[name = tensor<string, []>("input_237")];
            tensor<string, []> var_877_pad_type_0 = const()[name = tensor<string, []>("op_877_pad_type_0"), val = tensor<string, []>("valid")];
            tensor<int32, [2]> var_877_strides_0 = const()[name = tensor<string, []>("op_877_strides_0"), val = tensor<int32, [2]>([1, 1])];
            tensor<int32, [4]> var_877_pad_0 = const()[name = tensor<string, []>("op_877_pad_0"), val = tensor<int32, [4]>([0, 0, 0, 0])];
            tensor<int32, [2]> var_877_dilations_0 = const()[name = tensor<string, []>("op_877_dilations_0"), val = tensor<int32, [2]>([1, 1])];
            tensor<int32, []> var_877_groups_0 = const()[name = tensor<string, []>("op_877_groups_0"), val = tensor<int32, []>(1)];
            tensor<fp32, [1, 80, 20, 20]> var_877 = conv(bias = model_22_cv3_2_2_bias, dilations = var_877_dilations_0, groups = var_877_groups_0, pad = var_877_pad_0, pad_type = var_877_pad_type_0, strides = var_877_strides_0, weight = model_22_cv3_2_2_weight, x = input_237)[name = tensor<string, []>("op_877")];
            tensor<int32, [3]> var_878 = const()[name = tensor<string, []>("op_878"), val = tensor<int32, [3]>([1, 80, -1])];
            tensor<fp32, [1, 80, 400]> var_879 = reshape(shape = var_878, x = var_877)[name = tensor<string, []>("op_879")];
            tensor<bool, []> var_881_interleave_0 = const()[name = tensor<string, []>("op_881_interleave_0"), val = tensor<bool, []>(false)];
            tensor<fp32, [1, 80, 8400]> var_881 = concat(axis = var_678, interleave = var_881_interleave_0, values = (var_819, var_849, var_879))[name = tensor<string, []>("op_881")];
            tensor<int32, [4]> var_885 = const()[name = tensor<string, []>("op_885"), val = tensor<int32, [4]>([1, 4, 16, 8400])];
            tensor<fp32, [1, 4, 16, 8400]> var_886 = reshape(shape = var_885, x = x)[name = tensor<string, []>("op_886")];
            tensor<int32, [4]> var_887_perm_0 = const()[name = tensor<string, []>("op_887_perm_0"), val = tensor<int32, [4]>([0, 2, 1, 3])];
            tensor<fp32, [1, 16, 4, 8400]> var_887 = transpose(perm = var_887_perm_0, x = var_886)[name = tensor<string, []>("transpose_0")];
            tensor<fp32, [1, 16, 4, 8400]> input = softmax(axis = var_680, x = var_887)[name = tensor<string, []>("input")];
            tensor<string, []> var_894_pad_type_0 = const()[name = tensor<string, []>("op_894_pad_type_0"), val = tensor<string, []>("valid")];
            tensor<int32, [2]> var_894_strides_0 = const()[name = tensor<string, []>("op_894_strides_0"), val = tensor<int32, [2]>([1, 1])];
            tensor<int32, [4]> var_894_pad_0 = const()[name = tensor<string, []>("op_894_pad_0"), val = tensor<int32, [4]>([0, 0, 0, 0])];
            tensor<int32, [2]> var_894_dilations_0 = const()[name = tensor<string, []>("op_894_dilations_0"), val = tensor<int32, [2]>([1, 1])];
            tensor<int32, []> var_894_groups_0 = const()[name = tensor<string, []>("op_894_groups_0"), val = tensor<int32, []>(1)];
            tensor<fp32, [1, 1, 4, 8400]> var_894 = conv(dilations = var_894_dilations_0, groups = var_894_groups_0, pad = var_894_pad_0, pad_type = var_894_pad_type_0, strides = var_894_strides_0, weight = model_22_dfl_conv_weight, x = input)[name = tensor<string, []>("op_894")];
            tensor<int32, [3]> var_895 = const()[name = tensor<string, []>("op_895"), val = tensor<int32, [3]>([1, 4, 8400])];
            tensor<fp32, [1, 4, 8400]> distance = reshape(shape = var_895, x = var_894)[name = tensor<string, []>("distance")];
            tensor<fp32, [1, 2, 8400]> anchor_points = const()[name = tensor<string, []>("anchor_points"), val = tensor<fp32, [1, 2, 8400]>(BLOBFILE(path = tensor<string, []>("@model_path/weights/weight.bin"), offset = tensor<uint64, []>(12649472)))];
            tensor<int32, [2]> var_898_split_sizes_0 = const()[name = tensor<string, []>("op_898_split_sizes_0"), val = tensor<int32, [2]>([2, 2])];
            tensor<int32, []> var_898_axis_0 = const()[name = tensor<string, []>("op_898_axis_0"), val = tensor<int32, []>(1)];
            tensor<fp32, [1, 2, 8400]> var_898_0, tensor<fp32, [1, 2, 8400]> var_898_1 = split(axis = var_898_axis_0, split_sizes = var_898_split_sizes_0, x = distance)[name = tensor<string, []>("op_898")];
            tensor<fp32, [1, 2, 8400]> x1y1 = sub(x = anchor_points, y = var_898_0)[name = tensor<string, []>("x1y1")];
            tensor<fp32, [1, 2, 8400]> x2y2 = add(x = anchor_points, y = var_898_1)[name = tensor<string, []>("x2y2")];
            tensor<fp32, [1, 2, 8400]> var_902 = add(x = x1y1, y = x2y2)[name = tensor<string, []>("op_902")];
            tensor<fp32, []> _inversed_c_xy_y_0 = const()[name = tensor<string, []>("_inversed_c_xy_y_0"), val = tensor<fp32, []>(0x1p-1)];
            tensor<fp32, [1, 2, 8400]> _inversed_c_xy = mul(x = var_902, y = _inversed_c_xy_y_0)[name = tensor<string, []>("_inversed_c_xy")];
            tensor<fp32, [1, 2, 8400]> wh = sub(x = x2y2, y = x1y1)[name = tensor<string, []>("wh")];
            tensor<bool, []> var_907_interleave_0 = const()[name = tensor<string, []>("op_907_interleave_0"), val = tensor<bool, []>(false)];
            tensor<fp32, [1, 4, 8400]> var_907 = concat(axis = var_680, interleave = var_907_interleave_0, values = (_inversed_c_xy, wh))[name = tensor<string, []>("op_907")];
            tensor<fp32, [1, 4, 8400]> dbox = mul(x = var_907, y = var_671)[name = tensor<string, []>("dbox")];
            tensor<fp32, [1, 80, 8400]> var_909 = sigmoid(x = var_881)[name = tensor<string, []>("op_909")];
            tensor<bool, []> var_911_interleave_0 = const()[name = tensor<string, []>("op_911_interleave_0"), val = tensor<bool, []>(false)];
            tensor<fp32, [1, 84, 8400]> var_911 = concat(axis = var_680, interleave = var_911_interleave_0, values = (dbox, var_909))[name = tensor<string, []>("op_911")];
        } -> (var_911);
}